projects/nano-shakespeare/model.pt (torch, 456274 bytes, 41 tensors)

transformer.embd_tok.weight f4 [65, 48]
00000000: af01 58bc abb5 eabc d9e5 c33d fb5c a2bd
00000010: 737b 8c3d 6dad 22bd d286 283c 7e79 64bc
00000020: a234 1ebe 6212 9b3d 150d d43c 737c abbb
00000030: 510e 863c e8b2 a4bc 4d99 b53c 7ce2 76bd
00000040: 1f6b d33d c20b d03d 7477 eb3d f88c 9f3c
00000050: 36e4 bc3c a6a1 ea3c b83a 4e3c bf1d c3bb
00000060: ba38 fdbd ce77 e6bc 1918 38bc 8864 5dbd
00000070: 0830 883c 1ed1 22bd 6514 263d 58d1 f9bc
00000080: 9612 463c 577c 4d3d 0ae8 893d ce8f 413d
00000090: 40fd 1dbc 10ac 4ebd 74a3 0bbe da2a 073c
000000a0: c26a c13d 8174 5bbc 4e30 d2bd b541 b1bc
000000b0: b41f 8c3d 19a8 123d fe87 e7bc 00c4 9bbd
000000c0: 5ffc 253d 1925 f6bc 2194 9f3d 77de 33bd
000000d0: 8976 663d a1d4 4cbd 70f3 bbb9 ace7 2fbd
000000e0: 9e02 8ebd da69 903d 1940 1a3c 4302 ac3d
000000f0: bc32 2e3c 7b99 883d ccb3 b93c cfb8 a4bd
00000100: 9f56 52bd 2df4 0fbd 938b c53d 8725 4cbd
00000110: bb56 c8bd 1499 b13b a40d ca3c ce49 7abe
00000120: 8df7 a53c 3d84 56bc c335 383c bce5 c3bc
00000130: e8e3 d63c 8138 543d 3282 db3c 688c abbb
00000140: 4534 febd 9f2d 003d 75eb 5ebc 947f 50bc
00000150: e2af 91bc 6896 8ebc 4d24 7bbd 1fa8 2b3d
00000160: 3c8d bfbb 29a5 8ebc 691d 0e3d 6466 c2bb
00000170: 019c 253d 504a 753d 13b0 9abd c560 973c
00000180: 6ddf 41bb 358b 3f3d 6d79 b93b 6f6b b0bd
00000190: 0bde 8d3d 48ab 52bd f0c5 5bbb be7a 7c3d
000001a0: 7548 2b3c 17db 97bd 4539 683c fc5b 053c
000001b0: 5583 6ebb fdcf 9cbd 7845 ccbb ad4e 9ebd
000001c0: 9d59 ed3d 5bfe dbbd 65d4 adbc cfc2 ce3d
000001d0: 2bd2 1c3e b36b 96bd 81c7 6b3a d783 fb3d
000001e0: ce21 013d 2d45 94bc 4bc1 4dbc cc47 023d
000001f0: 2d3e 96bd 9d4e 28be b31e 313d ca8a 37bc
00000200: 8c77 953d 60ff 843c b087 873c 1551 f63c
00000210: 36eb 513b be2d 0d3d 93f3 c3bc 9940 5cbd
00000220: 3936 d93d 9426 9a3d 0a65 1a3c 5dac d03c
00000230: 9c59 14be 9403 db3d 5ab7 10be 5cd7 cdbc
00000240: bc10 3c3d 50a8 80bc 08b6 5d3d 8ce6 063d
00000250: bc96 313b 596f 1c3d f892 26bd 3783 a23d
00000260: 30f7 053d 5b5a c7bc a79c 42bc 6d22 2bbc
00000270: 765f 4dbc 69db 683d 36ff d8bc 6349 5ebd
00000280: d4f2 5fbd dc22 043d eb15 9b3c 017c f4bc
00000290: b6e1 383d 4a69 b03c 40b6 ab3d ffcb 2ebc
000002a0: 37d4 75bd f612 acbc 6788 13bd fe76 3cbc
000002b0: 8671 2e3d c677 2d3d a761 97bb 8855 1fbd
000002c0: b70e 83bd 3c95 17bd 30ff e33c 9a8c c6bc
000002d0: 5b7f b1bc a110 a03d c3aa 303d c117 54bd
000002e0: 8b25 24bd d71f a6bc 67f1 f53c 3f1b 993d
000002f0: c7ff 97bd db84 77bd 04f5 9dbc d214 5bbd
00000300: 2013 363c a02d 463c 6dc7 dbbc e1a0 94bb
00000310: 5d4d 29bd eebc 70bd ab53 c53c 50f8 33bc
00000320: 0008 1d3c b289 6b3d cc4d 973d 904a 853c
00000330: 8524 c93d 6d46 7bbd be1d b3bc aebe 25bd
00000340: 2acc 583c dafc 733d b82f 323c 13c2 81bc
00000350: b7e0 c03c b1b8 9ebc 679d 69bd 93a9 57bd
00000360: e679 3ebd aeba 253d a326 863c c4ac 00bc
00000370: 3570 c1bb 8722 acbc 0c89 abbb 6ebe babb
00000380: 12c5 623d 4b41 a53d 833d 533b 708d 59bd
00000390: 26f6 8abc c12f 933d b822 ed3b a6aa ad3c
000003a0: f843 223d de9b 15bc 5b50 0b3c 9bfd 81bd
000003b0: 3df9 ba3c 43f1 34bd 6758 8b3c 873c 9ebd
000003c0: d924 b13d d8ff b43c b92c 133e 77c5 5f3d
000003d0: 78ed 1e3e 7fab 75bb 97a6 fe3d e54e c0bc
000003e0: 6c01 823d 7e2c 8c3d 8000 eabd ade7 0ebe
000003f0: be1b dd3d 17c1 8bbd d0dd 43bb a15e 6dbd
-0.013183995 -0.02865108 0.09565324 -0.07927891 0.068594836 -0.039716173 0.01028605 -0.013944982
-0.15449765 0.075718656 0.025885144 -0.0052333414 0.016364248 -0.02010484 0.022167826 -0.060274586
0.10323166 0.101584926 0.11497393 0.019476399 0.023058038 0.028641533 0.012587242 -0.0059544737
-0.12364335 -0.0281333 -0.011236214 -0.054050952 0.016624466 -0.03975021 0.040546793 -0.03049533
0.012089392 0.050167408 0.06733711 0.047256283 -0.009642899 -0.05045706 -0.13636571 0.008249963
0.094441906 -0.013394476 -0.1026312 -0.021637777 0.068419844 0.03580484 -0.028263088 -0.076057434
0.040523883 -0.030046986 0.07791925 -0.04391333 0.056265388 -0.050007466 -0.00035848795 -0.04294555
-0.06934093 0.070514396 0.009414696 0.08398869 0.010632213 0.06669899 0.022668742 -0.08043062
-0.05135214 -0.035144974 0.09645762 -0.049840476 -0.097821675 0.0054198597 0.024664707 -0.24442217
0.020259643 -0.0130930515 0.011243287 -0.023913257 0.026231721 0.0518117 0.02679548 -0.0052352436
-0.12412313 0.031293508 -0.013605942 -0.0127257295 -0.017784063 -0.017405704 -0.061313916 0.04190838
-0.005845694 -0.017412739 0.034696016 -0.005932616 0.04043198 0.059885323 -0.07553115 0.01847876
-0.0029582635 0.046763618 0.005660227 -0.08614241 0.06927117 -0.051432878 -0.0033534728 0.061640494
0.010454287 -0.07414835 0.01417381 0.008139607 -0.0036394198 -0.07656858 -0.0062338673 -0.0772985
0.11589358 -0.10741874 -0.021219442 0.100957505 0.15314548 -0.07344761 0.0008994267 0.12281006
0.03152638 -0.018099392 -0.012558292 0.031806752 -0.07336078 -0.16436239 0.043242168 -0.0112025235
0.072981924 0.016235054 0.016544193 0.03006796 0.0032031066 0.03446745 -0.023919856 -0.053772543
0.10606045 0.075268894 0.009423504 0.025472814 -0.14487308 0.10694042 -0.14132443 -0.025127105
0.045914397 -0.015705258 0.054128677 0.03293471 0.0027097901 0.038192127 -0.040667504 0.079351835
0.03270644 -0.024335077 -0.011878169 -0.010445219 -0.012534967 0.05684987 -0.026488882 -0.054269206
-0.05467494 0.032259807 0.01893135 -0.029844286 0.04513713 0.02153458 0.08384371 -0.010668754
-0.060016837 -0.021005135 -0.036018755 -0.011502979 0.042588733 0.042350553 -0.0046197954 -0.03889993
-0.06399291 -0.037007555 0.027831644 -0.024236966 -0.021667173 0.07815672 0.0431316 -0.051780466
-0.040074866 -0.020278854 0.030022336 0.074759 -0.074218325 -0.060429435 -0.019281872 -0.053486653
0.011112958 0.012095839 -0.026828492 -0.00453578 -0.041333545 -0.058773927 0.024087748 -0.010984495
0.009584427 0.057504363 0.073878855 0.016270906 0.09821419 -0.06134646 -0.021864768 -0.04046505
0.01323227 0.05956731 0.010875635 -0.015839612 0.023544652 -0.019375177 -0.057034876 -0.052651953
-0.04650297 0.040461235 0.016375845 -0.007853691 -0.0059032687 -0.021012558 -0.005234843 -0.0056989705
0.055363722 0.08069094 0.0032232709 -0.0531134 -0.016963076 0.07186843 0.007236805 0.021199536
0.0396156 -0.0091314 0.008503045 -0.063471995 0.022823924 -0.044175398 0.017009927 -0.077263884
0.08649606 0.022094652 0.14372529 0.054631677 0.15520275 -0.0037486253 0.12434118 -0.02347512
0.063479275 0.06844424 -0.114258766 -0.13955565 0.10796307 -0.06823938 -0.002988685 -0.057951573

transformer.embd_pos.weight f4 [128, 48]
00000000: 0561 3bbd 93ca 9e3b d285 b1bc f423 3b3d
00000010: aff1 cd3c 8703 c33d 7444 213e 384f ab3d
00000020: 16b0 63bc 7c02 b8bc 5c27 89bd 6636 97bb
00000030: 9ec5 31be bb66 b739 59ed 09be 05f3 b9bc
00000040: f3a3 34bd bcae 1f3c d59d 97bb f481 143e
00000050: 2e4e b73a 6729 9cbd 7350 8ebd 8a22 86bd
00000060: 3fda 53bc 2674 6d3d c8e9 c63c e629 273e
00000070: d460 ae3b 6a62 873b 46bc 14be c2f7 29bd
00000080: 2854 c7bb 37ee 87bd 3232 703d 5c40 393d
00000090: 0fff 5ebd e6cd e03d 50c5 f83c 26ab 20bd
000000a0: 561d 1a3e f1a5 2cbd 2ff7 1e3d d309 b03d
000000b0: 603d b0bb 6ccf 92bd b3ba afbd 574b 18be
000000c0: 4f2d 60bd 63ae d93b 554f 18bc 4795 6e3d
000000d0: 4686 4a3c 37df 603d 93a2 143e 102e 933d
000000e0: 68be 9ebc 13b8 1ebd 702c 5abd 88be 9fbc
000000f0: e0de 08be e13b e7bc 4be7 18be 31d5 5abc
00000100: d713 78bd 4639 0fbd b6fd 933c 7e0e 0e3e
00000110: 2482 96bc 8adc 8dbd 06e8 9cbd 08e8 9fbc
00000120: bce1 ac3b 6da8 fe3c 31f7 3f3d 376b 0d3e
00000130: 124c c43c cd69 ab3b a9f8 0ebe d3c3 ffbc
00000140: 1565 5abc a748 cfbd df91 503d c6d6 293d
00000150: fca4 cabd cb69 d23d 7a22 9c3c 5789 a1bc
00000160: b279 f43d 2e0e 78bd ff6a 2d3d 7a04 b83d
00000170: 93c3 16bd 8667 4dbd 616c c7bc 6eff 00be
00000180: b834 4ebd 5046 ea3b b69c ccbb a72a 4d3d
00000190: 6de3 583c 27c3 2e3d 8080 113e 74af 853d
000001a0: 2ffc e0bb 2adf debc 6d1b 55bd ed17 99bb
000001b0: 2341 d8bd 49ce c5bc cf28 0ebe 370c 54bb
000001c0: 2f81 49bd 6bae d0bc 5057 8e3c cd14 0d3e
000001d0: f400 c0bc 5ad3 aebd f0a4 63bd 520d 49bc
000001e0: 6bd3 a6bb 15fe b53c 56dd 593d e304 d23d
000001f0: 46c9 3d3d c161 25bc 173d 07be 65cd 10bd
00000200: 7eae 41bb c4c5 eabd 03bb 363d 7e19 ed3c
00000210: 6761 d7bd f2ea aa3d d8bc 8e3c a2cc f3bc
00000220: 2751 bb3d c8d1 a2bd d132 573d ffc1 a23d
00000230: 9584 e7bc d3b4 61bd a263 1cbc 7ee5 ffbd
00000240: e08e 53bd 59fd 93bb 3146 16bc b1a2 433d
00000250: c02d 533c ae26 f23c 0f98 043e 722e 9e3d
00000260: 2672 22bc a18e 56bd 02be 37bd 0a94 acba
00000270: cfae cfbd 1c55 9cbc 9b66 edbd 64fe 1bbb
00000280: f160 3dbd 7f73 98bb 40c8 9d3b 8a4e f23d
00000290: 5c76 d0bc fb98 a8bd 56e0 5cbd 2406 f3bb
000002a0: 518c 35ba 744d df3c 0483 543d c211 bb3d
000002b0: a19a 423d 6cba 07bc 5f6f f4bd 77ef e0bc
000002c0: ab03 7ebc 90e1 c0bd edf5 553d a596 d33c
000002d0: 0d7e dcbd c60d a33d e2e7 4b3c 2d4e 1cbd
000002e0: 2371 b73d c9e3 8abd eca2 4a3d 3e69 9d3d
000002f0: c55f e5bc 18b8 32bd 88e9 d03b 24b3 edbd
00000300: e47d 4abd 6b8c e63b f438 a0ba a070 0c3d
00000310: ed84 c13b 50ed d23c 62f9 ef3d 2912 913d
00000320: 5ea5 d8bb bf9c 5ebd dd80 49bd e4f0 7a3b
00000330: 15a6 b7bd aad7 c4bc 8180 d4bd 1789 cdbb
00000340: 6da7 1fbd a469 96ba 484a 0e3c 9e61 cc3d
00000350: e36c babc 1ef0 a0bd f6bf 3bbd 5f1d d9bb
00000360: 99ff 0d3c 835e de3c e545 523d 04e5 c93d
00000370: b819 293d 5d50 4cbb 1556 dcbd f724 f2bc
00000380: ca71 8fbc 986f c0bd 99d9 233d 46c8 92ba
00000390: 322f eebd c9a4 923d 606e c53c 5445 e3bc
000003a0: 6497 9f3d a3cc 93bd 594d 243d 6407 b03d
000003b0: d2d2 2ebd babb 2dbd e8d4 a83b 8449 bfbd
000003c0: f2c0 74bd 5331 36bc 47a8 8cbc 11dc ee3c
000003d0: c3ad 583c a2e8 833c 5980 e03d f65e 7d3d
000003e0: ab47 12bc 997a 5bbd fcae 65bd 3929 1d3b
000003f0: 0dc2 a3bd 6128 a9bc c450 f0bd eb78 cfbb
-0.045746822 0.004845926 -0.021670256 0.045688584 0.025139658 0.09522157 0.15748769 0.08364719
-0.013896963 -0.022462122 -0.0669696 -0.004614639 -0.17360541 0.0003498102 -0.13469447 -0.022698889
-0.044101667 0.00974625 -0.0046269693 0.14502698 0.0013985091 -0.07625084 -0.06948938 -0.065495566
-0.012930452 0.057972096 0.024281397 0.16324577 0.0053216014 0.004131605 -0.14524946 -0.041496046
-0.0060830303 -0.06637233 0.05864162 0.045227394 -0.05444246 0.10976772 0.030367523 -0.03922572
0.15050253 -0.04215044 0.03880995 0.08595624 -0.00537841 -0.07168469 -0.08580532 -0.1487249
-0.05473071 0.006643103 -0.009296258 0.05824783 0.012361115 0.054900374 0.14515142 0.0718652
-0.019377902 -0.038749766 -0.053265035 -0.019500032 -0.1336627 -0.028226795 -0.14931981 -0.013356493
-0.060565796 -0.03496673 0.018065315 0.13872716 -0.018372603 -0.0692683 -0.076614425 -0.01951982
0.005275933 0.031086171 0.0468666 0.1381043 0.023962054 0.0052311183 -0.13962044 -0.031221306
-0.013329764 -0.10121279 0.050920364 0.04146459 -0.098947495 0.10274085 0.019059408 -0.019718809
0.11937274 -0.060560398 0.042338368 0.08985229 -0.036807608 -0.050147556 -0.024343671 -0.12597439
-0.050343245 0.007149495 -0.0062442673 0.050089505 0.013237816 0.04266658 0.14209175 0.06527606
-0.006866 -0.027206022 -0.05202811 -0.0046720416 -0.10559299 -0.024146216 -0.13882755 -0.0032355913
-0.049195465 -0.025473794 0.017375618 0.13777466 -0.023437954 -0.08536406 -0.05557722 -0.012271242
-0.005091121 0.022215882 0.053189598 0.10254838 0.046334527 -0.010094107 -0.13206898 -0.03535213
-0.0029553468 -0.11463502 0.044611942 0.02894282 -0.10516625 0.083455935 0.017424032 -0.029760662
0.09146338 -0.07950169 0.052538697 0.07947158 -0.028261462 -0.055104088 -0.009545239 -0.12494944
-0.051649928 -0.0045162854 -0.009172008 0.047762576 0.012889326 0.02955946 0.12948631 0.077237025
-0.00991491 -0.052382115 -0.04485894 -0.0013166678 -0.10140764 -0.019083552 -0.11591836 -0.0023802752
-0.04623503 -0.00465244 0.0048151314 0.118313864 -0.025447063 -0.08232304 -0.05392488 -0.0074165035
-0.0006925511 0.027258612 0.05188276 0.091342464 0.047510747 -0.0082841925 -0.11935305 -0.027457936
-0.015503804 -0.09418023 0.052236486 0.025828669 -0.1076623 0.079616114 0.012445422 -0.03816049
0.08957126 -0.06781728 0.04947178 0.07686089 -0.027999768 -0.043632597 0.0063754953 -0.11606434
-0.049436465 0.007035782 -0.0012224005 0.034287095 0.0059057386 0.025747925 0.11717488 0.07083542
-0.00661151 -0.054348703 -0.04919516 0.0038290555 -0.089672245 -0.024028618 -0.10376073 -0.006272446
-0.03897803 -0.0011475575 0.008684702 0.099795565 -0.022757 -0.07858299 -0.045837365 -0.0066258158
0.008666896 0.027144676 0.051336188 0.098581344 0.041284293 -0.003117583 -0.10758606 -0.029558642
-0.017510314 -0.09396285 0.04000244 -0.0011198602 -0.116300955 0.071603365 0.024100482 -0.02774302
0.07792547 -0.07216766 0.040112827 0.0859516 -0.042681523 -0.042415358 0.0051523335 -0.09340194
-0.05975432 -0.011120158 -0.017170085 0.02915767 0.013225022 0.016102139 0.109619804 0.06185814
-0.00892822 -0.053583715 -0.05607508 0.002398087 -0.079959966 -0.020649137 -0.11734155 -0.006331553

transformer.blocks.0.attn.layer.representation.weight f4 [144, 48]
00000000: 3266 23be 23c2 fabd 4859 febd d1cd a23d
00000010: 7168 223e 9c68 0f3e 783c fd3d 4918 ea3d
00000020: 032a f1b8 2aeb 67bd 69bf 56be fc12 f4bd
00000030: f320 21bd 1b1d dbbd 112f 38be 7431 2e3d
00000040: e864 fd3d ed27 d8bd 98f9 973c d750 ec3b
00000050: d2ea dc3d 7ad2 a1bd fee0 0ebc 6b29 8c3d
00000060: 0e61 533d 50dd 3a3e 6ca7 e2bd 2ec3 043e
00000070: c3dd 683d 0418 173d 2203 66be 45fe 5c3e
00000080: 681d c1bd dea4 10be 6b1b 853d 20d9 82be
00000090: 2061 39be 46fc 00be 2207 7c3e 3935 693d
000000a0: 14be a9bd 3da4 26be 7436 0fbd e3b0 9f3e
000000b0: 2830 eb3d 19e2 5d3c 4144 123e c88f 2d3e
000000c0: 4a89 583e 9354 323e d5de af3d 5db5 97bd
000000d0: bc7b dfbd 57c1 56be 7286 fbbd 8c91 d7bd
000000e0: 8f37 4d3c e751 a43d 6eb5 573e c35e d33d
000000f0: f518 8c3d 5a87 473d 639a 6c3e 327a a5bc
00000100: 66a6 c4bd 298d fb3d 258e e2bc 4ba3 c2bc
00000110: d6e0 60bd 7e33 db3d 9007 dabb 2565 4ebc
00000120: 3f05 a3bd 011d 80be dc0c 5c3d b2cb c8bd
00000130: 140b 01be c516 49bc 7ad1 613e c2b2 42be
00000140: 387f b53d 3f67 1a3e de0d 11bd a265 703e
00000150: cc30 653e 92ce a33d b3df 37be 0ade 99bd
00000160: fcbd 2e3d 2e2b 153e b868 32b7 dd39 8dbe
00000170: ae9a 83bd bfc8 21bc 2894 e1bd 8acc 22be
00000180: d4a8 533e 9597 083e 64dd bf3d f843 4fbd
00000190: 6e9a 01be 4425 1dbe e435 b3bd fcbb 94bd
000001a0: f430 84bc 0457 d73c 3a57 5b3e 75ae c33d
000001b0: b432 c63c ee20 113e c1a3 5f3e 8809 72bd
000001c0: 4028 18be 8145 143e a307 41bc 59b5 fcbc
000001d0: 83fd dabd 76ac cd3d 22b2 053d 81c7 8ebd
000001e0: 603a 92bd ab02 84be 4a5b 8f3d 6ef6 01be
000001f0: 9c64 0dbd 1bb5 55bb 9320 5f3e 2e83 63be
00000200: a2a1 a3ba b543 2a3e 41f9 22bd d08f 7a3e
00000210: 6bd9 4f3e 9853 0f3e 7bf7 5ebe 52c8 bbbd
00000220: 9468 fb3d f0fd e23d 1d68 233d 4687 90be
00000230: da61 d6bd c58f e93b ae5d 1abe bd1b 55be
00000240: ad33 503e 9b91 e63d eb26 953d 612a 85bd
00000250: e592 cbbd e6c1 0dbe d639 07be d7a4 c4bd
00000260: 35ee 593b d755 583d 36bb 6a3e 474b 8c3d
00000270: 2249 973d 8352 b23d 1431 4a3e 836f 72bd
00000280: 6b0b d7bd 56d9 a73d 188a 75bd d74a 90bc
00000290: d6d0 b0bd 819d 223d 6227 d3b9 cc7f edbc
000002a0: f644 94bd 23bc 8abe e9a4 18bc 7e77 17be
000002b0: 4021 e1bd 4632 46bd 598d 613e a301 67be
000002c0: 9f4f af3d d01c f73d d268 ccbd d9f8 873e
000002d0: 90e8 693e 5aa4 a43d 1f19 2bbe 8d59 9bbd
000002e0: aa29 ba3d da3e 4e3e 5b57 3a3d 01ff 98be
000002f0: 832c edbd 4c75 2fbc 4dca f1bd db34 40be
00000300: e78a 1dbe eae0 e0bd b0bd b9bd db21 db3d
00000310: afbb b43d 3822 043e f6c8 cc3d cb41 b13d
00000320: 3351 dc3c 2cd9 e9bc 9530 2ebe a25b a6bd
00000330: b92b 66bd f9de 0ebe 4a2e 21be 64fa 343d
00000340: a8cb ed3d 8353 fcbd 18d7 833d 8708 093c
00000350: 1986 e53d 1d2c 4fbd aefb 7dbc bc4b 693d
00000360: 6b18 983d 281f 7d3e 2fa3 4bbd dfa6 063e
00000370: c54f d33d ad5d 163c a62a 3abe 6bec 763e
00000380: 7f2f 87bd 1274 11be cbb9 803d d64a 6fbe
00000390: 04c5 81be d9e3 d9bd 1b3e 383e a57a a83d
000003a0: f2ef d0bd d256 11be 0cd8 95bd ac44 893e
000003b0: 181a bf3d e270 12ba d848 f53d 1f49 2e3e
000003c0: 5398 5dbe 797d 0cbe 3d7f 04bd 9ea8 b63d
000003d0: 65eb 0e3e ae1c 343e 3a80 423e 60ef ed3d
000003e0: c4a1 713b 98c4 7abd c23a 27be 9b52 98bd
000003f0: 4ee5 92bd fee5 9bbd 8e08 66be d074 643d
-0.15956953 -0.1224406 -0.12419373 0.079494126 0.15860154 0.14004749 0.12365049 0.11430413
-0.00011499601 -0.056620754 -0.20971455 -0.119176835 -0.039338063 -0.10698911 -0.17986704 0.04252763
0.12372762 -0.1055449 0.018551633 0.0072117853 0.10786976 -0.07901473 -0.0087206345 0.06843837
0.05160623 0.18248487 -0.110670894 0.1296508 0.056852113 0.036888137 -0.22462133 0.21581371
-0.09429437 -0.14125392 0.0649937 -0.25556278 -0.18103456 -0.12596235 0.24612096 0.056935523
-0.08288208 -0.1627359 -0.03496404 0.3118964 0.114837945 0.013542675 0.1428385 0.1694938
0.21146122 0.17415075 0.08587424 -0.07407639 -0.10912272 -0.20972191 -0.12281503 -0.10525808
0.012525453 0.08023434 0.21065304 0.10320809 0.06840698 0.048713066 0.23105769 -0.020199869
-0.096020505 0.122827835 -0.02765567 -0.023759505 -0.05490192 0.10703181 -0.0066537336 -0.012597357
-0.07959985 -0.25022128 0.0537232 -0.09804477 -0.12601882 -0.012273495 0.22052565 -0.19013503
0.08862156 0.15078448 -0.035413615 0.2347627 0.22381896 0.079983845 -0.17956428 -0.07513054
0.042661652 0.14567253 -1.06340085e-05 -0.2758321 -0.06425987 -0.009874522 -0.11014587 -0.15898338
0.20669872 0.13339074 0.09368399 -0.05060193 -0.12656567 -0.15346247 -0.08750513 -0.07262418
-0.016136624 0.02628661 0.21419993 0.095547594 0.024194099 0.14172718 0.21839811 -0.05909112
-0.14859104 0.14479639 -0.011781606 -0.030848192 -0.10692885 0.1004266 0.032640584 -0.06971646
-0.071400404 -0.25783285 0.06999834 -0.12691662 -0.034519777 -0.0032609168 0.2178977 -0.2221801
-0.0012484083 0.1662739 -0.03978849 0.24468923 0.20297782 0.13996732 -0.21774094 -0.091690674
0.12275806 0.11083591 0.039894212 -0.28228205 -0.104678825 0.0071277344 -0.15074798 -0.20811363
0.20332213 0.11258241 0.07282814 -0.06502224 -0.09940127 -0.13843498 -0.13205656 -0.09601753
0.0033253555 0.05281624 0.22922978 0.068502955 0.07386996 0.08707144 0.19745284 -0.059188377
-0.10500225 0.081957504 -0.05994615 -0.017613811 -0.08633582 0.03970099 -0.000402744 -0.028991602
-0.07239716 -0.27096662 -0.009316661 -0.14791676 -0.1099267 -0.04838779 0.22026576 -0.22559218
0.085601084 0.120660424 -0.099809304 0.26557043 0.22842622 0.0803916 -0.16708802 -0.0758544
0.09089978 0.20141163 0.045493465 -0.29882053 -0.115807556 -0.010709118 -0.11806164 -0.18770163
-0.15385018 -0.10980399 -0.09069383 0.10699817 0.0882486 0.12903678 0.09999268 0.08655127
0.026894188 -0.028545938 -0.1701072 -0.08122946 -0.05619404 -0.13952245 -0.15740314 0.044184104
0.1161111 -0.12320616 0.0643751 0.0083638495 0.11207218 -0.05057918 -0.0155019 0.05695699
0.07426532 0.24718916 -0.04971617 0.13149594 0.10317949 0.0091776075 -0.18180332 0.24113624
-0.06600856 -0.14204434 0.06285437 -0.23368391 -0.25345623 -0.106391616 0.17992441 0.082265176
-0.10202016 -0.14193276 -0.07316598 0.26810205 0.09331149 -0.0005586279 0.119767845 0.17020081
-0.21640138 -0.13719739 -0.032347906 0.0891888 0.13956983 0.17589065 0.18994227 0.11617923
0.0036870101 -0.061222643 -0.16331008 -0.07437631 -0.07172643 -0.07612227 -0.22464201 0.055775464

transformer.blocks.0.attn.layer.representation.bias f4 [144]
00000000: 288c 263f 005d 25bf fe95 23bf 6cb8 30bf
00000010: fcdb 283f 7a2a 2c3f 2e2c 30bf edac 45bf
00000020: 4208 2e3f dcad 2a3f b29d 36bf 0665 273f
00000030: 5f0e 253f b734 3abf 6310 33bf 655f 2cbf
00000040: 19a9 febe b68b 6f3e 9eef 0abf 8919 103f
00000050: a52b fd3e 0ee4 0e3f 9024 0c3f 6b7e 053f
00000060: d16b 013f 6799 053f 1207 02bf 0e6f 053f
00000070: 2da3 0abf 6c97 0abf b45b 113f 13fc 063f
00000080: 3062 4b3f d217 4ebf 8bef 543f 8b21 473f
00000090: ac86 463f 6cb1 49bf 9913 453f 1bcf 473f
000000a0: 0a43 45bf 32e8 48bf 312b 45bf b825 44bf
000000b0: e867 4ebf 76d1 493f a6ee 3cbf 8e73 46bf
000000c0: 0fb6 8337 597f b9b8 0826 6c37 0909 7837
000000d0: f37f 02b9 d80d 1db9 76d0 ba38 69e8 0039
000000e0: 6b46 12b9 e641 39b9 a243 bf38 a8ee 0eb9
000000f0: 5980 cab7 56a5 5938 96f3 4039 8834 a438
00000100: 7d63 5eb8 ef68 4c36 ce2e 55b8 4d15 b938
00000110: a29d e238 50fa 3039 51ac 0239 6fe7 7a38
00000120: 2de9 deb7 49f7 aa38 1729 36b8 cc59 d037
00000130: 619b 48b9 5c17 ffb8 61a4 fa37 e978 1639
00000140: de56 3e39 7ade c1b7 576f 2539 bb7d 5838
00000150: 0f94 d338 2e6a 33b9 1d4f bd38 0d5d d036
00000160: ad04 b1b8 f381 80b9 8a06 20b9 1cc7 74b8
00000170: b97e 0ab9 bd42 87b8 6c83 3bb8 3965 c8b8
00000180: 847f babc a3aa e5ba 5fea 8e3c 2777 973c
00000190: 60b9 d6bc 1417 83bc f75a 21bb df65 c6bc
000001a0: 1d0b 223c 0993 8a3c e846 943c 8bf2 613c
000001b0: 2075 003c f0df 9d3a e7d2 97bc 8b0e 9f3c
000001c0: ff02 8a3a 55ec 0cbd ca99 6ebc 65e3 18bc
000001d0: 418b 323c c5bd 913c 17ff 1b3c f06c a2bb
000001e0: 5470 173c e4a3 833b 48a8 7a3c 60b6 1fbd
000001f0: 0504 06bc 0110 8abc 8422 5ebc 22cf e63c
00000200: bdc7 983c 6c51 8db9 d1d2 cb3c a271 9fbc
00000210: e868 963c 320b 973c debe 4ebc 6ad7 88bc
00000220: b70c 923c ae80 413c a87f dabc e280 ddbb
00000230: 65d7 233b 32df 14bb 958d afba d243 8c3c
0.6505761 -0.6459503 -0.63900745 -0.69031405 0.6596067 0.67252314 -0.6881741 -0.7721699
0.6798135 0.6667154 -0.71334374 0.65388525 0.64475054 -0.72736686 -0.6994688 -0.6733306
-0.49738386 0.23393139 -0.54271877 0.56288964 0.4944736 0.55816734 0.5474329 0.52146024
0.5055514 0.521872 -0.5079204 0.5212258 -0.54155236 -0.541373 0.5678055 0.52728385
0.794467 -0.80505097 0.83178014 0.7778556 0.7754924 -0.7878635 0.7698303 0.7805039
-0.7705542 -0.784793 -0.7701903 -0.76620054 -0.806273 0.7883524 -0.7380165 -0.7752007
1.5701195e-05 -8.845208e-05 1.4075551e-05 1.4784056e-05 -0.00012445431 -0.00014977844 8.908e-05 0.00012293611
-0.00013949878 -0.00017667524 9.120187e-05 -0.00013631082 -2.4140043e-05 5.1890813e-05 0.0001840129 7.829914e-05
-5.302158e-05 3.0459448e-06 -5.0826748e-05 8.825455e-05 0.00010805881 0.00016877917 0.00012461959 5.9820184e-05
-2.6573043e-05 8.152292e-05 -4.343045e-05 2.4837347e-05 -0.0001913137 -0.000121636986 2.9878867e-05 0.00014350157
0.00018152173 -2.3110992e-05 0.00015777104 5.161551e-05 0.00010088842 -0.00017110325 9.026958e-05 6.2097156e-06
-8.4408886e-05 -0.00024510882 -0.00015261225 -5.835957e-05 -0.00013207913 -6.4497326e-05 -4.470667e-05 -9.555597e-05
-0.022765882 -0.0017522167 0.017445741 0.018489433 -0.02621144 -0.016002215 -0.002462087 -0.024218498
0.009890345 0.016915815 0.018100217 0.013790737 0.007840425 0.0012044888 -0.018533183 0.019416114
0.0010529457 -0.03440507 -0.014563033 -0.009331559 0.0108974585 0.017790684 0.009521267 -0.004956834
0.00924309 0.00401734 0.01529891 -0.038992286 -0.008179669 -0.016853334 -0.013558034 0.02817494
0.01864993 -0.0002695428 0.024880799 -0.019463364 0.01836057 0.018437956 -0.0126187485 -0.01670428
0.017828329 0.011810465 -0.0266722 -0.006759749 0.0025000211 -0.0022716043 -0.0013393635 0.017122183

transformer.blocks.0.attn.resid_proj.weight f4 [48, 48]
00000000: c6a3 81bd 0ed3 babc 80b2 0d3d b8b6 983d
00000010: b5f3 cdbc 7a96 cb3c 65f9 41bd b16b 0abd
00000020: 9113 603c 3191 4c3c b8d6 7dbd 7516 92bc
00000030: 58b0 40bc 2f30 ffbc 9dfb f33b 1982 e7ba
00000040: 6f9d 6ebc c066 33bc dd86 6dbc cee5 c93b
00000050: c312 b83c 7159 9c3d 7c8f 313d aaa2 5d3d
00000060: c13c 57bc 509a 573c 04a8 a83c 8125 ffbc
00000070: 857e 2fbd c08a 9fbc f05a f6bc 973b 903d
00000080: 7f49 8cbc e50c 0c3d 39f0 9d3b 0ac3 31bd
00000090: 331a 233d 2887 ac3c ab18 95bb 6514 cc3c
000000a0: 31b0 69bd e0a3 6db7 37bf 1ebd a4f6 333d
000000b0: bcf1 113c 4cfe b7bc b5d3 af3c 4e64 90bc
000000c0: 6358 c6bc 45d3 f53c 9cf7 c03d c03e 993c
000000d0: 2569 933d e69f 103d 8f2d cfbb ac5d 3abc
000000e0: 60c4 5abc 0c7d b6bc ecee 43bc 9e27 e3bc
000000f0: 7d37 c83c 117c 05bc a19d 553b cede a2bc
00000100: ba02 c0bd 1c32 41bc b9e6 bb3b ccd6 b7bd
00000110: b3c3 b5bc 6342 1b3c f340 853b 149f 9b3c
00000120: 40bc 68bc b326 8fbd b809 48bc 0214 2ebc
00000130: b6af 82bd bd5b e1bc c062 77bd 835b 5b3d
00000140: 4976 34bd 1891 8d3c 2240 033c 1cda 8fbc
00000150: 7819 9bbb ba2f c23c 98df 453d 9f82 063d
00000160: c95d 63bc 84dd 8abd ce02 a9bc 5103 563b
00000170: a1e9 b6bd 11bb 1bbd 91fc d83c 16c2 0cbd
00000180: 77f0 2e3c e7df 69bd adf9 71bd 7648 023d
00000190: 4f31 ac3c 0fa0 c43d 90cf b63d 0d0b d03c
000001a0: b3f3 f5bc 40df f63c 7e7e 94bd 39f1 bbbc
000001b0: 47d7 92bd 6c2d 1a3d 12de 5f3c 393d c2bd
000001c0: 64bc 3bbd b431 383d 666b e83d 8f6a 9cbd
000001d0: 3329 31bd b405 73bd 7604 d6bc 529b febc
000001e0: a06f 3f3d ffa0 f1bc b1d2 a3bc d565 b9bd
000001f0: c89d 0d3d c162 7fbd f228 bbbc 8bb7 a93a
00000200: fe55 00bc bb90 a13d c8bd 81bd 7cb4 843d
00000210: c2be 883d 4dbf e5bd 1236 713d 815b 45bd
00000220: a963 a9bc 94e7 9ebd 6d30 663d ffc5 aa3b
00000230: 972d 963a 5f21 cbbc 695b b0bc 4208 75bd
00000240: cc11 51bc 948d e1bc 77d4 c33b ccfc 423d
00000250: a33a 0bbd ab67 783c 1b67 7bbd 6c9e 983b
00000260: 03e2 803d 6399 72bd 64f1 25bc df70 353d
00000270: 70d1 933c 5fa8 53bd fc08 e93c 4e38 743b
00000280: 11d4 d13c eb68 3e3d e545 84bd 3dec 143d
00000290: 86b3 3fbd 7f4e ec3c 22c4 ec3c c188 7f3d
000002a0: fbd5 5dbd 0223 473c 638a 31bc e5c7 73bc
000002b0: afc8 4cbd 95d0 8e3c 6221 1ebc e83c 4c3d
000002c0: 778a 63bd 8274 78ba 67c7 acbc 5360 28bd
000002d0: 3eac abbb 0898 653d c71d 7bbd 215b 56bc
000002e0: befa 14bd 2f1a 943d a35f e7bb 9e0e 1c3d
000002f0: 2d8f 2a3c 5e5b 61bd 52b0 543d 2be0 a53c
00000300: d427 afbd 4043 03bd ef93 c5bd bf36 d33c
00000310: 0f0d 8fbd 0a99 03be 365f d2bc 6cff 343d
00000320: b407 913d 02af b83c f331 d23c 1c98 993d
00000330: e07f f53d 3270 fbbc 0910 ec3c 0753 bc3d
00000340: 86bf 763d 79d9 133b 90b7 0cbe 1e5b fe3d
00000350: fbb4 9c3d d958 b23d fac6 123d b5c6 0a3e
00000360: 8c37 923c 3e67 893d 8c5b a13d 0418 993c
00000370: 550d 01bd a734 8c3c 484b e1bc 149a 91bb
00000380: a8b9 5e3d a071 92bd a648 de3c 5fc8 b4bb
00000390: c100 c33d 2ec9 9d3b 2294 67bd 641a 08be
000003a0: bc60 103d 325d 573e a25f 253d 6605 30bc
000003b0: 942c c33d f35c 46bd 7dbe 1cbd e3a5 2b3e
000003c0: 6c39 17bd 5a28 fabc b990 63bd 891c a53b
000003d0: 8c8a 09bd b533 f73b b3c2 c93d d8b9 2b3d
000003e0: 822d ccbc 6a70 0a3d 0b3b 393d c18e 0f3c
000003f0: 1495 dc3c 2b2f 27bc 62d0 5a3d 9819 933d
-0.063300654 -0.022805717 0.03459406 0.07456726 -0.025140623 0.024852026 -0.04735698 -0.03379411
0.01367654 0.012485788 -0.06197235 -0.017832974 -0.011760794 -0.031150905 0.007445766 -0.0017662673
-0.014563902 -0.0109497905 -0.014497486 0.006161428 0.022469884 0.07634247 0.043349728 0.054110207
-0.013137043 0.01315935 0.020587929 -0.031145813 -0.042845268 -0.01947534 -0.03007266 0.07042616
-0.01712489 0.034191985 0.0048198965 -0.043398894 0.039819907 0.021060541 -0.00455006 0.024912069
-0.057052795 -1.4164456e-05 -0.038756575 0.043936387 0.008907732 -0.022460125 0.021463254 -0.017625954
-0.024212068 0.030007968 0.09422228 0.01870668 0.07197789 0.03530874 -0.0063225697 -0.011374872
-0.0133524835 -0.022276424 -0.011958819 -0.027728852 0.024440521 -0.0081472555 0.0032595175 -0.019881632
-0.0937552 -0.011791732 0.0057342914 -0.08976516 -0.022188043 0.009476277 0.0040665804 0.018996753
-0.014205039 -0.06989803 -0.012209348 -0.010624887 -0.063811705 -0.027509565 -0.06039691 0.05355407
-0.044058118 0.0172811 0.008010896 -0.017560057 -0.0047332607 0.023704398 0.04830894 0.032839414
-0.013877341 -0.06780532 -0.02063122 0.0032655785 -0.0893128 -0.038020197 0.02648762 -0.034364782
0.0106774485 -0.057098296 -0.059076 0.031807385 0.021019606 0.09600841 0.08926308 0.025395894
-0.030023431 0.03013575 -0.07250689 -0.022942172 -0.07169967 0.037640974 0.0136637855 -0.094843335
-0.04583396 0.044969276 0.113486096 -0.07637512 -0.04325218 -0.05933161 -0.026125174 -0.031079922
0.046737313 -0.029495714 -0.019997926 -0.09052626 0.0345743 -0.06235004 -0.022846673 0.0012948377
-0.007833002 0.07888933 -0.06335026 0.06479737 0.06677009 -0.11218128 0.058889456 -0.048182968
-0.020677404 -0.07759014 0.056198526 0.0052115913 0.0011457679 -0.024796186 -0.021527963 -0.05982233
-0.012760591 -0.02753333 0.0059762555 0.047604367 -0.033991467 0.015161435 -0.061377626 0.0046575572
0.06293108 -0.059228312 -0.010128353 0.044297095 0.018044204 -0.051674243 0.028446667 0.0037265006
0.025613816 0.046486776 -0.06458644 0.036358107 -0.046802066 0.028846024 0.028902117 0.062386278
-0.054159146 0.012154343 -0.010836217 -0.014879202 -0.049996074 0.017433444 -0.009651514 0.049862772
-0.055551972 -0.000947781 -0.021091176 -0.041107487 -0.0052390387 0.05605319 -0.061307695 -0.01308325
-0.03637194 0.072315566 -0.0070609613 0.038099878 0.010410112 -0.055018775 0.051925965 0.020248493
-0.085525185 -0.032046556 -0.09647357 0.02578294 -0.069849126 -0.12851349 -0.025680166 0.0441889
0.070815474 0.022544388 0.025658583 0.07499716 0.11987281 -0.030693147 0.02881624 0.09195524
0.060241245 0.0022560044 -0.13741899 0.12419723 0.07651707 0.087083526 0.03583429 0.13552363
0.017848752 0.06709145 0.07878789 0.01868821 -0.031506855 0.01711495 -0.027501717 -0.0044434164
0.054376274 -0.071505785 0.02713425 -0.00551705 0.09521628 0.0048152423 -0.056537755 -0.13291317
0.035248503 0.21031645 0.040374406 -0.010743475 0.09529987 -0.048428487 -0.0382676 0.167625
-0.036919996 -0.03053682 -0.05555794 0.005038802 -0.033579394 0.0075440058 0.09851589 0.04192528
-0.024924044 0.033798613 0.045222323 0.0087620625 0.026926555 -0.010204117 0.053421386 0.07182616

transformer.blocks.0.attn.resid_proj.bias f4 [48]
00000000: d401 0c3b ebcd 54bb e4de 9f3b bd34 bc3b
00000010: fb5c fdbb 3f37 0f3c e23e 103a 2719 feba
00000020: 545b 74bb e04b cd39 989e 4d3b 38f1 24bc
00000030: 3e65 25ba 5034 afba 5acc 5b3c 9aaa 283c
00000040: 29ba 2abc 65b1 883b 3992 febb 8706 f4bb
00000050: 561a bd3b 849f 4f3c 5ed4 653a e0d4 49bb
00000060: e8a7 86bb dd27 c0bb 346f f43a 9234 81bb
00000070: 118c 663a 98ca 6f3b 0773 c23c 1ba6 2e3b
00000080: 2248 d8ba 5f8a 163c f0a7 2737 75fa bb3a
00000090: 6b94 ffbb e20c 2f3c 5a39 8a3a 3ff4 783b
000000a0: 2cea 303b be70 c63b 1a66 27bb 902d 093a
000000b0: 9b05 9bbb c922 c8ba c64e 55bb 333d 0a3c
0.0021363394 -0.003247137 0.0048788656 0.0057435916 -0.0077320314 0.008741199 0.00055025343 -0.0019386158
-0.003728588 0.00039157178 0.0031375047 -0.010067277 -0.0006309337 -0.0013367031 0.01341542 0.010294581
-0.010420361 0.0041715377 -0.007768896 -0.007447067 0.0057709618 0.012672309 0.0008767302 -0.003079705
-0.0041093715 -0.005864127 0.0018648864 -0.0039430344 0.0008794675 0.003658926 0.02373649 0.00266493
-0.001650099 0.009188264 9.993077e-06 0.001434161 -0.007799675 0.010684224 0.0010545657 0.003798738
0.0026995046 0.0060559204 -0.0025543035 0.00052329246 -0.004730893 -0.0015269156 -0.0032548173 0.008437443

transformer.blocks.0.ln1.weight f4 [48]
00000000: 7d23 823f a6df 843f 39e1 7f3f 73da 843f
00000010: 7cfb 7d3f 4125 833f 288c 813f e667 7a3f
00000020: 5799 813f b69b 833f b3ba 773f 4a12 833f
00000030: 31b2 753f 4cab 803f 9abe 7d3f f679 853f
00000040: 0fb6 803f bcdf 813f 526e 803f 3412 863f
00000050: 4996 7f3f 0783 7e3f d995 783f ce9b 7f3f
00000060: e004 823f eb32 813f 7c79 833f d7fa 823f
00000070: a5d0 813f 90a2 7c3f 73da 6d3f 6bd9 7e3f
00000080: af2c 853f 01dd 7e3f 860a 823f 9e87 863f
00000090: 1fa9 753f e04d 833f 6cbd 813f 4aa5 833f
000000a0: 82fa 853f 7de6 803f eb1a 833f e9ee 783f
000000b0: 975f 873f de93 843f e6a1 853f 369f 893f
1.016708 1.0380752 0.9995304 1.0379165 0.9921186 1.0245744 1.0120897 0.97814786
1.0124921 1.0281894 0.96769255 1.0239956 0.95975024 1.0052276 0.9911896 1.0427845
1.005556 1.0146403 1.0033667 1.0474305 0.9983869 0.9941868 0.9710365 0.99847114
1.0157738 1.0093664 1.0271449 1.02328 1.0141798 0.9868555 0.9291145 0.99550503
1.0404261 0.99555975 1.0159461 1.0510137 0.95961183 1.025814 1.0135932 1.0284817
1.0467074 1.007034 1.024259 0.9723955 1.0576047 1.0357625 1.0440032 1.0751712

transformer.blocks.0.ln1.bias f4 [48]
00000000: f850 31bd 5e86 19bd dcf3 5f3d 09bc a63c
00000010: 1d5f 7abb 1646 113d 887c 343d c99f baba
00000020: f17f 92bc f764 53bc 2720 53bd 2a28 5fbd
00000030: d3d7 4abd baab adbd 2208 853b ead7 223d
00000040: 762b 43bd 6e15 2fbd 10f3 e6bc cd7c 71be
00000050: 30e3 3d3d dee8 ce3d fc53 6b3b f3b5 febb
00000060: c7df 34bd 056a a93c a821 f03c 13f0 173d
00000070: 306f 90bd 25bd cd3c e57f e83d adb7 4d3d
00000080: 71af ecbc b734 773d 3194 f53d c204 e3bd
00000090: 6c30 53bd 378f e33c dc55 173a 47a1 573d
000000a0: fa95 9d3c e9f9 f93d 3846 2dbd f206 013d
000000b0: b530 21bb 1da6 00bd 6da5 88bd 059e 3c3e
-0.04329011 -0.03748166 0.05467592 0.020353334 -0.0038203665 0.03546723 0.044064075 -0.0014238294
-0.017883273 -0.01290249 -0.051544335 -0.054481663 -0.049522232 -0.0848002 0.0040598074 0.039756693
-0.04764887 -0.042745046 -0.028192073 -0.23582764 0.04635924 0.1010301 0.0035908213 -0.007773155
-0.044158723 0.020680437 0.029312924 0.037094187 -0.07052457 0.025114605 0.11352519 0.050223995
-0.02889225 0.060353007 0.11991156 -0.11084892 -0.05155985 0.027778251 0.0005772987 0.05264404
0.019236553 0.1220587 -0.042303294 0.031500764 -0.0024595682 -0.031408418 -0.066721775 0.18419655

transformer.blocks.0.ffwd.layer.lin.weight f4 [192, 48]
00000000: 035c 1dbd 7aff 13bd 1e6c 9c3a e939 a1bc
00000010: 874a bbbc ee7a 51bc 6e41 01bc e6d4 10bc
00000020: 54fd 133d ba68 a6bb 10b6 913b 67e1 ad3d
00000030: bf7e bbbc 9b98 f4bd ad88 343d 9f87 96bd
00000040: 5841 163d 1a00 6fbd 6e01 c83c d60a d43c
00000050: 7e5f a03c c03c d9bd a298 613c 7228 893d
00000060: be0f 6abd 091f d83c 720b 833c ddbb 5a3d
00000070: d511 d43c f4d6 20bd 5e7f 82bd 33d7 bfbd
00000080: 8cf6 3bbd 6216 0dbd 9c46 813d 7b3e a4bc
00000090: c246 733d 2d9e 54bd 4ab0 a4bb 1489 e13b
000000a0: b7ab d3bd 809b 79bd e5f5 88bc 9861 2e3d
000000b0: 6cef 623c 23a3 b13d 0fd0 c13d 8b49 7b3c
000000c0: a3eb 05bc 32fb 30bc 5fcc 6b3d 45f4 2cbd
000000d0: 4c60 353d a820 1abb b4ec 4f3d 5b9c 01bd
000000e0: 1797 903d 926c 603d 5c0e 373d 6eec 1c3c
000000f0: 6872 ff3d da67 1cbd b170 c63d 08c5 41bd
00000100: 7f21 2a3d b307 563b 385c 263d f6db ebbc
00000110: 28f7 8ebd 9d55 2fbe dbcf 74bb 1aee a5bb
00000120: e0e6 bbbc 0c03 71bd 90c5 c6bd 7e08 b33c
00000130: 20e3 783d 82ab 333d a846 88bc cbda c43c
00000140: 3b5a 67bc 62db e13c 3628 b53d 5ca1 093c
00000150: 8a74 22bd 1e90 8dbc 32ce c83b dae8 7c3c
00000160: 9a84 523d 90f2 aa3c e770 953d 4441 bcbd
00000170: eb16 87bd d376 e7bc 1bc3 06bd b4ce 17bc
00000180: f5ef 41bd 83ed fd3d 8667 c83c e38d bdbd
00000190: 0526 853b 1ab7 993c ba60 c83a cdf8 20bd
000001a0: b375 54bd abac f1bb 8958 abbd 646c c2bc
000001b0: d500 b3bc f7b7 bc3d bde9 4f3d 3d1e f43a
000001c0: e8b3 a9bc 6a03 20bd 9665 693d 3fd5 883c
000001d0: 5724 ddbc e46f 8a3c 724a 923b 3cf8 2b3c
000001e0: 7b2f b2bc 837b 0abd 5354 13bd 2f27 5a3d
000001f0: 72c6 39bd 50a3 87bd ea8b 62bd ac3a 90bc
00000200: b24c 32bc d20c 37bd c4c6 75bc ba6e fb3b
00000210: 432d 77bc 6994 7f3c db35 be3c 6130 af3c
00000220: 4c20 fb3c e287 433d 97b9 0ebd d86c b4bc
00000230: 4091 8c3d b5e0 503d 4ea0 bb3d edc2 413c
00000240: ba55 a5bd 39ac 7abc c379 aabc ef1b 893d
00000250: ef38 60bd b24a 5cbd ca1a 1c3d 883e a63c
00000260: e0f3 9c3b fda8 1e3d 40a7 95bd 626d 6cbc
00000270: 11c5 07bd 24f6 423d 7cd6 4ebc cd53 c7bb
00000280: 298c cdbb c730 293d 55a4 b3bd d873 153d
00000290: 750a ed3b ac20 edbc fbb7 9bbd 00e5 283d
000002a0: 7762 20bd 8370 813d 6057 e03b cea7 cc3d
000002b0: ffb0 4f3d 09eb cb3c 0394 433d eb56 cabc
000002c0: 3620 063c 44f2 9c3c da20 083d 8b86 29bd
000002d0: 00a2 0d3d a9db a73a 9d32 6b3d 4dc7 173c
000002e0: 2d1c 963c 4ad0 813d 6320 fabc 82fb 0f3c
000002f0: d4d4 743c ca51 aebc 5b75 603d 5dc3 be3b
00000300: a93c 9fbd 914a 57bc d44c abbd 6790 82bc
00000310: 4bce c8bd 4250 133d f6be 83bd 5ef8 883d
00000320: 936b 943c 0819 f6bd 02b2 3a3b b46e bcbc
00000330: 29d7 5c3d 0cbb ce3c 1597 eabc a1de 093d
00000340: 342f 723c 265e b13b 7ba6 e83c 362e b23d
00000350: a2eb b43b 3fac 473d 4af2 623d 83cf 8c3d
00000360: 04d2 403d a36d dc3b 138f 21bd 4d65 7cbd
00000370: b44b 533d a58b 12bd a9ad f4bd 8212 ca3c
00000380: 97ae 863d 27a5 96bd 7c4a 2e3c cad0 ecbb
00000390: c055 db3c 4c87 85bd 5294 7d3d c8ec aebc
000003a0: ada9 afbd 328d 1dbd 843c 513c 2183 3e3d
000003b0: 2444 00bb 2d5d 30bd e25d 453e 026c f8bc
000003c0: 22d3 423d c274 95bd 3835 13bd 3211 b33c
000003d0: 615c 7c3c 98b3 14bd 9168 1bbd 525d 683c
000003e0: 1c4c a13d 2edc 643d f449 7bbd 5acb 7e3c
000003f0: ea66 5e3d b583 5e3d b7e1 b2bc c47d 2bbd
-0.038417827 -0.036132313 0.0011934077 -0.019680934 -0.022862686 -0.012785656 -0.007889135 -0.008839821
0.036130264 -0.0050784023 0.0044467524 0.08490258 -0.022887586 -0.1194317 0.044075657 -0.073500864
0.03668341 -0.058349706 0.024414744 0.025884073 0.019576784 -0.1060729 0.013769301 0.066971675
-0.05714392 0.026381986 0.015996668 0.053401817 0.02588741 -0.039267495 -0.063719496 -0.09367218
-0.045889422 -0.034445174 0.06312296 -0.020049324 0.05939365 -0.05190866 -0.005025898 0.006882796
-0.103354864 -0.060939312 -0.016718814 0.04257354 0.013851028 0.08673694 0.09463512 0.015337358
-0.008173856 -0.010802077 0.05756795 -0.04222514 0.04428129 -0.0023518 0.050762847 -0.031643253
0.07060068 0.05479104 0.04469143 0.009577854 0.12472993 -0.038184978 0.09689463 -0.047307044
0.04153585 0.0032658398 0.04061529 -0.028791409 -0.06980735 -0.17122503 -0.0037355337 -0.0050637843
-0.022937238 -0.058840796 -0.09705651 0.021854635 0.06076348 0.043864734 -0.016635254 0.02403011
-0.014120634 0.02757043 0.0884556 0.0084002875 -0.03966192 -0.017280634 0.006128096 0.0154363755
0.05139599 0.020867616 0.07296925 -0.09192136 -0.06596168 -0.028254902 -0.03290091 -0.00926559
-0.04734798 0.123988174 0.024463426 -0.09255578 0.00406337 0.018764067 0.0015287616 -0.039299775
-0.05187006 -0.00737532 -0.08366496 -0.023733325 -0.021850983 0.09214776 0.05076002 0.0018624734
-0.020715669 -0.039065756 0.056981646 0.016703246 -0.026994867 0.016899057 0.004464441 0.010496195
-0.021751156 -0.033809196 -0.03596909 0.053260025 -0.045355268 -0.06622946 -0.055309214 -0.017606102
-0.010882543 -0.04468996 -0.015001003 0.0076731117 -0.015086475 0.015599349 0.02321904 0.021385374
0.030655049 0.04773701 -0.03484496 -0.022024557 0.06863642 0.050995547 0.09161435 0.011826259
-0.08072992 -0.01529985 -0.020810014 0.06694781 -0.054741796 -0.053782173 0.038111486 0.02029349
0.0047898144 0.03873538 -0.07307291 -0.014430376 -0.03314692 0.04759802 -0.012624379 -0.006082988
-0.006272812 0.041306283 -0.08771578 0.03648743 0.0072339126 -0.028946243 -0.07603451 0.041234016
-0.039156403 0.06320288 0.0068463534 0.09992944 0.050705906 0.024892347 0.047748577 -0.024699649
0.008186391 0.01915849 0.033234455 -0.041388076 0.034578323 0.0012806553 0.057421315 0.009263826
0.018323982 0.06338556 -0.030533021 0.0087879915 0.01494332 -0.021279234 0.05479942 0.005821629
-0.07775242 -0.013140337 -0.08364263 -0.015937997 -0.09804972 0.03596521 -0.06432907 0.06687997
0.018117702 -0.12016493 0.0028487449 -0.023002006 0.05391613 0.025235675 -0.028636495 0.03365958
0.014781762 0.0054128347 0.028399697 0.0870022 0.0055212537 0.04874825 0.055406846 0.06875517
0.047075287 0.006726937 -0.039443087 -0.061620045 0.051585868 -0.035777707 -0.119471855 0.024667028
0.06576269 -0.07355719 0.010637876 -0.007227038 0.026774287 -0.065199465 0.061909027 -0.02135314
-0.08577285 -0.038464732 0.012770776 0.046511773 -0.0019571865 -0.04305761 0.19274095 -0.03032494
0.047564633 -0.072976604 -0.035939425 0.021858785 0.015402884 -0.036304086 -0.03794152 0.014182406
0.07875845 0.055874042 -0.061349824 0.0155514125 0.054297365 0.054324824 -0.021836145 -0.041867986

transformer.blocks.0.ffwd.layer.lin.bias f4 [192]
00000000: ee3c 7c3b ea88 ef3c 388a de38 3347 92bd
00000010: 3860 d93b 631f 46bd 80f5 95bd fe6e aabd
00000020: d3b0 4dbb ac26 603a 2450 373d 35a9 51bd
00000030: cb97 fbbc 2d82 2abd 2371 89bd 4e52 edbc
00000040: 6507 e1bb 76f0 773c 8448 783d d291 bc3b
00000050: f950 93bb 13eb 48bd e583 84bd 4c84 33bd
00000060: 2a77 2a3d d7a1 94bd 4814 60bd c4c2 15bd
00000070: 21d3 61bd 15ca 40bd e56e 18bd b835 67bc
00000080: 94ed e43a 9b07 0fbd d91a b2bc 9ac3 e53c
00000090: 162a 21bd bf02 32bd 2d2c 0fbc 71d1 9e3c
000000a0: fa88 333b dc66 33bc 58bc 80bd 6a79 483c
000000b0: fd7d 86bd ce23 cabc 3936 61bd dd52 17bd
000000c0: 6aba 133a dda1 09bd e832 81bd b8e9 56bc
000000d0: 0a6a 85bb 8803 3ebd 7e39 663c b6d3 1cbd
000000e0: 9537 22bd 4a80 7e3b 5667 50bc cb0a 53bc
000000f0: ff8b a6bc c124 233d 5332 e8bc 1e08 743d
00000100: c444 bfbb 3f2a 35bc cfca 043c 0c27 08bd
00000110: 99ed 2dbb a8e1 3bbb 13bd 45bd 8560 10bd
00000120: 418d b8bc 6f9a c5bd 3552 3ebd dc1c a9bc
00000130: b249 ed3c e94a 0d3d d7eb 6ebd 1136 70bc
00000140: cb2f 82bd 5e2b a7bc ac00 35bd f430 04bc
00000150: 85e6 2f3c 5889 d4bb 6beb bebd d3c5 323d
00000160: a066 a0bc ce5b 24bd 11d0 033d cec2 9abc
00000170: d39e 4c3b c21b d9bc 727d b838 e0ef 8ebc
00000180: bdc1 083d 6643 31bc f9bd bcbb 19f1 99bc
00000190: 6f6b fa3c 3dfe b0bc 1567 8dbc e211 4d3c
000001a0: 1236 86bc 38c1 d6bc 965c 86bc 99c0 fbba
000001b0: 5571 e2bc 684d 81bc 35d9 d2bc 0ba9 efbc
000001c0: e17a 97bc 31c4 febc 279e 95bc d942 96bc
000001d0: 2065 8f3c 2842 05bd 163a 543a 8318 ef3b
000001e0: 5ce1 093d 5a1d 23bb c9b1 01bd 3f1c 35bd
000001f0: 98f7 26bb 9a22 553b dc3b 23bd 45b1 243d
00000200: cdd1 75bd c2a8 b13c 15ef 863d 6811 2cbd
00000210: ae2c abbc dbd3 0b3b 33ac 2b3b bdbb 27bd
00000220: 43c0 24bc 9177 6f3b 8abc c2bc 7e04 793d
00000230: 1452 00bd 69c6 98bc 88db eb3c f79e a8bb
00000240: 55f2 38bd 1483 f4bc c294 633d 7ad3 1e3c
00000250: 3fc7 673c 1f14 cabc 2d97 58bd 07fa 18bd
00000260: 331e 57bd ff02 acbc ff6b eebb 68a6 1cbd
00000270: cbb5 393c 599e 443d 2f88 2cbd cbbd a83c
00000280: 04d6 df3c 8e12 b8bb 1dbc 593c f3b1 55bd
00000290: 2f83 d33c a46f ce3b 00b2 f1bb 0bc1 963b
000002a0: d30f 6b3b d196 93bd 11b3 773c 403a 16bd
000002b0: d56b 08bc 4d58 a3bc 20c5 c839 8ca9 343d
000002c0: 71b9 b7bc 2775 43bd dc15 fbbc 27c2 363c
000002d0: 6062 0a3b c234 abbc 2f85 02bd 6c67 c13c
000002e0: 8949 8e3c e98e 8bbc 6a26 1e3d 91dd 9cbb
000002f0: 537f 60bd 85b7 9cbd 5c98 fcbc 3442 8c3c
0.0038488465 0.02924009 0.0001061153 -0.071424864 0.0066337846 -0.048369776 -0.07322216 -0.08321951
-0.0031385913 0.00085506844 0.044754162 -0.05118676 -0.030712029 -0.04162805 -0.06711032 -0.02896991
-0.0068673366 0.015133014 0.06061603 0.005754688 -0.0044957367 -0.04905231 -0.064704694 -0.04382734
0.04161755 -0.07257431 -0.05470684 -0.036562696 -0.05513299 -0.04706772 -0.037215132 -0.014111929
0.0017465823 -0.034919363 -0.021741318 0.028047372 -0.039346777 -0.04345965 -0.00873856 0.019386979
0.0027394877 -0.010949817 -0.06285924 0.012235979 -0.06566999 -0.024675276 -0.05498335 -0.03694426
0.0005635383 -0.03360163 -0.06308538 -0.013117246 -0.0040714787 -0.046390086 0.014051793 -0.03828784
-0.03960379 0.003883379 -0.01271995 -0.012880991 -0.020330427 0.039829973 -0.028344309 0.059578054
-0.005837055 -0.011057436 0.008104994 -0.033240363 -0.0026539324 -0.0028668437 -0.04827602 -0.0352483
-0.022528293 -0.096485965 -0.046465117 -0.020643644 0.028965805 0.034495268 -0.058330383 -0.014661328
-0.06356772 -0.020406421 -0.044190094 -0.008068312 0.0107361125 -0.006486099 -0.09322246 0.04364569
-0.019580185 -0.040126614 0.03218085 -0.018891718 0.0031222596 -0.026502494 8.79717e-05 -0.017448366
0.03338789 -0.010819292 -0.005759951 -0.018791722 0.030568806 -0.021605605 -0.017261067 0.012516471
-0.016383205 -0.02621518 -0.01640157 -0.0019207179 -0.027641932 -0.01578398 -0.025738338 -0.02925541
-0.01849121 -0.03109941 -0.01826389 -0.018342422 0.017504275 -0.032533795 0.00080958137 0.007296623
0.033662185 -0.002488932 -0.03166369 -0.04421639 -0.0025477167 0.0032521845 -0.03985201 0.04020812
-0.060014535 0.021686915 0.0658857 -0.042008787 -0.020895328 0.0021335992 0.0026195168 -0.040950526
-0.010055604 0.0036539773 -0.023771543 0.0607953 -0.031328276 -0.018649297 0.028791204 -0.005145903
-0.04515298 -0.02984766 0.05556179 0.009693975 0.014146625 -0.024667798 -0.052878547 -0.03734782
-0.052519035 -0.020997522 -0.0072760577 -0.038244635 0.011334847 0.048002575 -0.042122062 0.020598313
0.02732373 -0.0056174463 0.013289479 -0.05217166 0.02581939 0.0062999297 -0.0073759556 0.0046006492
0.0035867586 -0.072065 0.015118376 -0.036676645 -0.00832649 -0.019939566 0.00038293842 0.044107005
-0.022427293 -0.047719147 -0.030650072 0.011154688 0.0021115765 -0.02089918 -0.031865295 0.023608886
0.017369049 -0.017035918 0.038610853 -0.004787155 -0.054808926 -0.07652191 -0.03083437 0.017121412

transformer.blocks.0.ffwd.resid_proj.weight f4 [48, 192]
00000000: bfe9 cb3c f4f6 913c 1fc1 10bd 680c 983d
00000010: b928 143d 9141 403a 1ba3 88bc 7896 31bb
00000020: e101 a2bc c2c6 b23c a350 eabb 2dac b3bc
00000030: 4f53 1fbc 2553 383c 7a8e dbb9 c758 bdbd
00000040: 03aa f03c 7dbc d3bc 153d 44bb 8efc 37bd
00000050: 379e e8bb 59ba ecbb 8d3e 813c 4a38 1a3d
00000060: 8034 25bc 997d 78bc e419 20bb 82aa 523d
00000070: 96e3 8b3c d7c0 9e3c de15 ed3c 4872 643c
00000080: 0663 55bd 7a2e 023d 0ac0 05bd 2f3b 7ebb
00000090: 9c8c 89bd 6b0b 523b b2bf 213d f538 2e3b
000000a0: a1ef 87bd da52 b53c 6a46 473d 20a7 2ebd
000000b0: 1a07 823d b487 2039 0bbc 91bb 1ca7 453c
000000c0: 47be 47bc 8015 64bd 1e40 b33b 0015 6dbd
000000d0: ff44 403c 012a 053d d631 52bc ae13 cc3b
000000e0: 906d 1f3d 44f0 d3bc 8f80 95bc 16ff ffbc
000000f0: 0ae6 06be 5ed4 38ba 7612 a6bc b30c a03c
00000100: 6b71 a6bd 4823 b7bc 2507 38bd b98c 48bc
00000110: 4afa c139 1fad f2bb a84f c43b 08ba 25bd
00000120: e0ed d23c 992c 45bd 1944 99bb ffdb a4bc
00000130: c306 d53c 6ad4 58bc 69be 61bb 739f 063d
00000140: 86d1 d5bb d091 833d 4dcb 1b3c 8af0 0f3d
00000150: 94bd 023d b21b e7bb 6a22 103b 691b 8e3c
00000160: a18e fabc 8783 a6bb 0fbc 8f3c 9277 203c
00000170: acd9 363d fe4a 863b b885 533c b81f eb3c
00000180: 5c9d 183d 37de bf3c a0bb 933d e6eb 343d
00000190: 3bcc 1d3d c1cb d1bb 9701 96bb e004 eabc
000001a0: d2a9 a3bc c8bc 263d cc41 ea3c 99f1 093d
000001b0: e750 53bd e9e3 ac3c a562 cd3b e965 f53c
000001c0: 870f 1bbc ea9c 12bd fe70 0e3c 6401 263c
000001d0: b011 a03c 4e36 b8bd 952b e7bc 5ad4 48bc
000001e0: 122e 03bd 6870 43bc 7810 50bc 0e9d c8bc
000001f0: 9994 acbc 84c7 b23c b3f7 2d3d d630 a6bc
00000200: 43a5 37bd 19b3 23bc 3362 1e3c fdcc 5c3d
00000210: 6006 21bd 2c25 f9bc dbff 8e3c 9335 e33c
00000220: c2c7 893b 469e 16bd be5b 16bd 64c0 48bd
00000230: a62c c5ba 8fed 513a cb50 53bd d868 2abd
00000240: 41f1 6e3d 5571 d7bc deeb aebc a3c7 163c
00000250: 4a23 17bd a348 c13d 5d13 c73c 9029 c13c
00000260: 678d 4e3c 42bf 1a3d c362 04bc f5eb a8bc
00000270: 460f 83bc 2541 40bb 4649 c73c 6fcb 63bd
00000280: 60db 363c 4c7b 85bb 4208 c93c 0a3b 9fbc
00000290: 7a52 5b3b 1909 8ebd 57cc 153c 6c1f f03c
000002a0: 4531 1dbd c8c2 593c fdc8 c9bd b626 2a3d
000002b0: 4bdf a0bc 917b 123c 1dca c43c 4080 9bba
000002c0: 204f 1ebc 31df 843d 85e1 93bc 7eaa a839
000002d0: 2013 06bc fe4b 993d eda0 01bd 996b 3dbd
000002e0: 0f29 1c3c 9d2d e2bc 6f5f 61bb 36ae f43b
000002f0: a68e 0a3c 90e8 f2b8 751d 033d a5e5 bcbc
00000300: 8825 90ba dc1c 643c d353 56bc 9bcd 823c
00000310: beb7 74bc 2df7 d4bc bbac c03a 5171 7cbc
00000320: 180d 703c 5d79 7e3d fa04 cdbc 1e20 c93b
00000330: d73c 48bc a540 883b 7b28 c63c 0a4e 593b
00000340: 8b8e 43bc ef4a 98bc 1044 273d 4f85 06bd
00000350: 24a4 9ebc ff1c f4bc 47b5 b03c 72ab 483c
00000360: 19ad 3f3d b056 07bd 0376 d8bc d6d7 ddbb
00000370: bd4d 9abc 36e3 80bc a52a b03d cf19 1f3c
00000380: 4303 47bc b399 d0bc 40fb 32bd 0c33 34bc
00000390: dc0e a2bd f6a0 a9bd 57bb d7bc 216b b1bb
000003a0: 6555 4fbd af29 9fbd 90a9 f9bc 20c7 2a3c
000003b0: 975d 823d 3cf5 60bc d9e7 483b 3d0c 5ebd
000003c0: f00e 23bd c73d f3bc 5376 0dbd f90f 88bd
000003d0: 4f66 303c dbd6 babc 0c5c af3b 318b 383d
000003e0: 9d40 13bc 95db 123c 4668 38bd cb40 0fbd
000003f0: 3393 c43c 3ac9 a8bb 2aa7 493c f54e e1bc
0.024891732 0.017817952 -0.035340425 0.07424241 0.03617165 0.0007333989 -0.016679337 -0.0027097743
-0.019776287 0.02182329 -0.007150726 -0.021932686 -0.009724452 0.011250292 -0.00041877088 -0.092454486
0.029377943 -0.025846714 -0.0029943634 -0.04491859 -0.007098939 -0.007224363 0.015776897 0.037651338
-0.010083318 -0.015166664 -0.0024429495 0.05143214 0.017076295 0.019379063 0.028941091 0.013943262
-0.05209639 0.031782605 -0.032653846 -0.00387926 -0.06716272 0.0032050263 0.039489456 0.0026584242
-0.066375025 0.022134233 0.048651136 -0.04263985 0.06349011 0.00015309342 -0.0044474653 0.012063768
-0.012191362 -0.055684566 0.00547029 -0.057881355 0.0117352 0.03251076 -0.012829265 0.006227932
0.038922846 -0.025871404 -0.018249778 -0.031249564 -0.1317369 -0.0007050688 -0.020272475 0.019537305
-0.081271015 -0.02235569 -0.04492869 -0.012240582 0.00036998308 -0.0074058915 0.005990941 -0.040460616
0.025748193 -0.048138235 -0.0046773073 -0.020124434 0.0260042 -0.013234237 -0.0034445769 0.032866906
-0.0065252213 0.06424296 0.00950892 0.035141505 0.031919077 -0.007052862 0.0021993169 0.017347055
-0.030585589 -0.0050815972 0.017545728 0.009794133 0.04464118 0.0040982952 0.012910299 0.028701648
0.037259445 0.02342139 0.07213521 0.044170283 0.038524847 -0.006402463 -0.0045778262 -0.028566778
-0.019978438 0.04070738 0.028595828 0.03367767 -0.051590826 0.02110477 0.006267863 0.029955821
-0.009464151 -0.035794176 0.008693932 0.0101321675 0.019539684 -0.08994733 -0.028219024 -0.01225766
-0.032026358 -0.011928655 -0.012699239 -0.024488952 -0.02106695 0.021823652 0.042472553 -0.020286959
-0.04483534 -0.009991431 0.009666967 0.05390643 -0.03931272 -0.030413233 0.017455986 0.027735507
0.004204721 -0.036772035 -0.036708586 -0.049011603 -0.0015043213 0.0008008116 -0.051590722 -0.041603893
0.058335546 -0.026299158 -0.021352705 0.009202871 -0.03689889 0.094376825 0.024301225 0.023579389
0.012606955 0.037780054 -0.008080187 -0.020620326 -0.015998494 -0.0029335704 0.024326932 -0.05561393
0.0111607015 -0.004073536 0.02454007 -0.019437332 0.0033465908 -0.06935329 0.009142957 0.029311858
-0.038377065 0.013291068 -0.098527886 0.041540824 -0.019637724 0.008940593 0.024022156 -0.0011863783
-0.00966242 0.06487883 -0.018051872 0.00032170484 -0.008183271 0.074851975 -0.03164761 -0.04624519
0.0095312735 -0.02760964 -0.0034389158 0.0074670566 0.008456862 -0.000115827774 0.032010514 -0.023058722
-0.0010997513 0.013922896 -0.013081509 0.015967181 -0.014936386 -0.025996769 0.0014699915 -0.015407876
0.014651559 0.06212746 -0.025026787 0.006137862 -0.012221537 0.004158097 0.024189224 0.0033158087
-0.01193584 -0.018590419 0.040836394 -0.032841977 -0.019365378 -0.029798983 0.021570815 0.012247907
0.04679594 -0.033041656 -0.02642346 -0.0067701144 -0.018835897 -0.015733343 0.08601884 0.009710743
-0.012146774 -0.025463914 -0.043696642 -0.010998499 -0.079129905 -0.08282654 -0.026334448 -0.005414382
-0.050618548 -0.077716224 -0.030476362 0.010423452 0.06365507 -0.013730343 0.003065577 -0.05421089
-0.039809167 -0.029692544 -0.03453667 -0.066436715 0.01076658 -0.02280753 0.005351549 0.04505462
-0.008987573 0.008963485 -0.045021318 -0.0349739 0.023995971 -0.005150941 0.012307921 -0.02750347
