projects/nano-shakespeare/model.pt (torch, 455698 bytes, 41 tensors)

transformer.embd_tok.weight f4 [65, 48]
0.028592227 0.0012435429 -0.020265095 0.0043981285 -0.0097671095 0.011484403 -0.015566933 -0.025614837
-0.009477903 -0.024539271 0.025148023 -0.0064781085 -0.017673837 -0.0011342249 -0.010398955 -0.023911918
-0.015564602 -0.0065386007 -0.011452743 0.0037188926 0.0035813511 0.03364949 -0.024250483 0.010192276
-0.033363674 9.506533e-06 0.015755307 -0.036470994 -0.030485678 0.020295992 -0.036019925 -0.011188972
0.017942674 -0.0049091442 -0.0054312847 -0.035649896 -0.01011503 -0.0016656999 0.0048689856 -0.009032904
-0.015360782 0.011514651 0.018203516 -0.013915869 0.017205661 -0.008784571 0.010681934 -0.05215098
-0.033976518 0.008175013 -0.024023227 0.020734802 0.017855467 0.033665325 -0.01641434 -0.008313233
-0.011026404 -0.0150108095 0.01169205 -0.018447034 0.0062049287 0.02123878 0.0014713842 0.014088471
0.001981573 0.030559015 -0.0024033994 0.01687566 0.0035501823 -0.016512748 -0.04743582 -0.019860324
0.043586247 -0.0052716397 -0.03685811 -0.01350688 -0.01574124 0.000346414 0.032416344 0.012933856
-0.028142761 0.009428636 -0.016479215 -0.0034000948 -0.027491353 -0.019229468 -0.025793474 -0.014554769
0.0037241976 -0.031410538 0.012360787 0.005282959 -0.011070675 0.004787243 0.005602864 -0.013207046
0.053507272 -0.0048127742 0.011144446 -0.017602783 0.0031639573 0.006935856 0.028880367 0.0003876306
0.024754748 -0.026291404 -0.025933871 -0.018204069 0.0014767464 -0.014502674 0.003476277 -0.005507425
-0.005901133 0.021228777 0.017310388 -0.009537582 0.004534422 0.027674912 0.029572127 0.024683671
-0.017112467 -0.0022552912 -0.00055497966 0.015081827 -0.014343921 -0.009898632 -0.034285806 -0.037423
0.019861046 0.010822989 -0.013364878 0.031168403 -0.015973262 0.0150372535 0.017500833 0.029240884
-0.010221359 0.013809373 0.03507287 -0.0129240705 0.026618788 0.0064623957 -0.010678676 0.0020577642
0.0020268906 -0.0021747185 0.013427657 0.022589844 -0.011585902 0.01848521 0.0024804266 0.010495008
-0.015532614 0.0021115374 -0.030320652 -0.010859427 -0.011892451 0.0013669678 -0.01818968 -0.019566778
0.008323158 -0.039761584 -0.009177608 0.0031815264 -0.006708935 -0.027489834 0.0030484619 -0.019888029
0.001351579 0.020237816 -0.00082549604 -0.011272468 -0.00933401 0.0070871855 0.00022118256 0.005186068
-0.010713715 0.022240127 -0.035702568 0.0023716511 -0.02024789 0.023555685 -0.020503625 0.027324349
-0.008942691 0.023524925 -0.0054099164 -0.008908411 0.013416165 0.016885387 -0.0028322057 0.025523642
-0.00083477184 0.0087535605 -0.016929144 0.009831968 -0.06659927 -0.012675267 -0.027647434 -0.0017479574
0.011171411 0.003486904 -0.06468918 -0.0021361858 -0.043554835 0.03572761 0.010454629 0.014216049
-0.02218204 0.001498868 -0.042941105 0.0036091895 0.022292135 0.013294646 -0.011270897 -0.02897149
0.008899835 0.021098074 -0.010574141 0.02230796 0.030121103 -0.00024989378 -0.020988643 -0.007219339
-0.06181914 0.0042396807 -0.013783923 0.001255829 -0.03453109 0.0027928902 0.035041515 -0.039665945
-0.0155616375 0.01791123 -0.012348641 -0.054252353 0.008485195 0.00959101 -0.011313927 -0.0030303933
-0.020348126 0.0010375082 0.00051357533 0.005556497 -0.014332803 -0.0357819 -0.0145201115 -0.021856777
-0.022606244 -0.009518184 -0.015372328 0.0032924728 0.038215313 0.009406526 0.033156954 0.026607681
00000000: 3f3a ea3c 60fe a23a fc02 a6bc 2d1e 903b
00000010: 3a06 20bc 1429 3c3c 730c 7fbc 35d6 d1bc
00000020: 3549 1bbc 9506 c9bc 3a03 ce3c 5046 d4bb
00000030: b9c8 90bc 46aa 94ba 6160 2abc ede2 c3bc
00000040: ac02 7fbc c241 d6bb 49a4 3bbc aab8 733b
00000050: 1ab5 6a3b 0cd4 093d f3a8 c6bc 81fd 263c
00000060: 59a8 08bd 407e 1f37 4611 813c 9c62 15bd
00000070: 1abd f9bc c843 a63c a189 13bd f351 37bc
00000080: 84fc 923c e3dc a0bb ebf8 b1bb a005 12bd
00000090: 83b9 25bc 9d53 daba 038c 9f3b bffe 13bc
000000a0: caab 7bbc f2a7 3c3c 8a1f 953c 63ff 63bc
000000b0: e3f2 8c3c 29ed 0fbc 4703 2f3c 449c 55bd
000000c0: f62a 0bbd 7df0 053c 5ccc c4bc 08dc a93c
000000d0: a145 923c a7e4 093d 5e77 86bc 3a34 08bc
000000e0: 17a8 34bc e6ef 75bc 0390 3f3c 3c1e 97bc
000000f0: b752 cb3b f3fc ad3c 76db c03a 55d3 663c
00000100: 47dd 013b e656 fa3c 5a82 1dbb d33e 8a3c
00000110: 2daa 683b be45 87bc 104c 42bd 1eb2 a2bc
00000120: 7e87 323d b8bd acbb 88f8 16bd f64b 5dbc
00000130: c6f3 80bc e69e b539 00c7 043d 86e8 533c
00000140: a68b e6bc 917a 1a3c 6bff 86bc 20d4 5ebb
00000150: 8c35 e1bc 1e87 9dbc d64c d3bc 2077 6ebc
00000160: ab11 743b 56a8 00bd e684 4a3c ac1c ad3b
00000170: c761 35bc 4ede 9c3b 3b98 b73b 5e62 58bc
00000180: 712a 5b3d 7ab4 9dbb 3297 363c b633 90bc
00000190: 655a 4f3b 2d46 e33b 8596 ec3c e63a cb39
000001a0: 78ca ca3c 1261 d7bc 4573 d4bc b320 95bc
000001b0: 638f c13a a09c 6dbc 40d2 633b a177 b4bb
000001c0: 4b5e c1bb f9e7 ad3c 84ce 8d3c 8543 1cbc
000001d0: 7d95 943b 7fb6 e23c 3f41 f23c 6935 ca3c
000001e0: 722f 8cbc 82cd 13bb 0e7c 11ba c419 773c
000001f0: c402 6bbc df2d 22bc 466f 0cbd dc48 19bd
00000200: a2b3 a23c e852 313c 5cf8 5abc e154 ff3c
00000210: 5cda 82bc d05e 763c e85d 8f3c 948a ef3c
00000220: 7d77 27bc b540 623c 92a8 0f3d 7bbf 53bc
00000230: a50f da3c 81c2 d33b 9df5 2ebc 8edb 063b
00000240: 95d5 043b b985 0ebb adff 5b3c 560e b93c
00000250: ccd2 3dbc 4c6e 973c a78e 223b 41f3 2b3c
00000260: 817c 7ebc b861 0a3b 0463 f8bc bdeb 31bc
00000270: 8ed8 42bc d42b b33a 8602 95bc 824a a0bc
00000280: db5d 083c 0bdd 22bd ae5d 16bc 2881 503b
00000290: a0d6 dbbb 5c32 e1bc b4c8 473b 38ec a2bc
000002a0: 7727 b13a c7c9 a53c 1a66 58ba 28b0 38bc
000002b0: aded 18bc 9f3b e83b 3eed 6739 e4ef a93b
000002c0: 9488 2fbc ed30 b63c db3c 12bd b46d 1b3b
000002d0: e7de a5bc daf7 c03c 38f7 a7bc 50d7 df3c
000002e0: 5d84 12bc 58b7 c03c ab45 b1bb 95f4 11bc
000002f0: 79cf 5b3c 3953 8a3c 879c 39bb f516 d13c
00000300: 97d4 5aba 186b 0f3c fdae 8abc 4316 213c
00000310: 3365 88bd ecab 4fbc df7c e2bc b81b e5ba
00000320: 4b08 373c 8b84 643b c37b 84bd 40ff 0bbb
00000330: 8e66 32bd 1d57 123d e449 2b3c 6eea 683c
00000340: 1cb7 b5bc aa75 c43a 03e3 2fbd 2788 6c3b
00000350: ff9d b63c c9d1 593c 92a9 38bc 9e55 edbc
00000360: 9dd0 113c ded5 ac3c 293f 2dbc 2fbf b63c
00000370: 88c0 f63c 2d04 83b9 60f0 abbc 3490 ecbb
00000380: 1136 7dbd 05ed 8a3b f7d5 61bc a19a a43a
00000390: 7970 0dbd ec08 373b b187 0f3d c278 22bd
000003a0: 3df6 7ebc 92ba 923c f451 4abc b737 5ebd
000003b0: 7d05 0b3c 9d23 1d3c 0d5e 39bc 9099 46bb
000003c0: 1db1 a6bc 00fd 873a 75a1 063a 4613 b63b
000003d0: 22d4 6abc 0b90 12bd c3e5 6dbc fc0c b3bc
000003e0: bb30 b9bc 28f2 1bbc 38dc 7bbc 87c6 573b
000003f0: a987 1c3d d41d 1a3c 96cf 073d 5af8 d93c

transformer.embd_pos.weight f4 [128, 48]
-0.00034661655 0.004499013 -0.049929336 0.012195689 0.019838294 0.035250057 -0.01863178 -0.017398631
0.026435306 -0.0098754475 -0.0051203514 -0.024377821 0.039257307 0.04315294 -0.041130614 -0.022330472
0.013368235 -0.001910217 -0.008409228 0.019368319 0.0101516545 -0.007540108 -0.017057138 -0.003961476
-0.03447553 -0.023703946 0.011418573 0.013178137 0.020991635 0.019541206 0.013314512 0.027326265
0.007877104 -0.005064484 0.009636213 -0.007852647 0.0037304254 -0.028500244 0.012424162 0.008353909
0.018220814 6.0400707e-05 -0.027516201 -0.009325426 -0.01930975 0.005981363 0.011150662 0.011091517
0.030523807 0.012059666 0.050115336 0.021993099 0.002560844 0.03047094 -0.023148697 -0.023778034
-0.013602285 -0.015468784 -0.02153625 0.007842486 0.0065442976 -0.008177469 -0.005414125 0.0046935994
0.010891651 0.02921087 -0.014018999 0.013112327 0.01131059 0.016577158 -0.017359335 -0.0040687453
-0.021722201 -0.03232865 0.0017285063 -0.023725057 0.02975346 0.03541592 0.022399738 0.00952868
0.013258732 -0.013157653 -0.0020950362 -0.00078151544 0.016774742 -0.0043565794 -0.01730913 -0.03182141
0.003431467 0.011260617 0.01676704 -0.03740622 -0.017328594 -0.017833943 -0.014290235 -0.011309092
0.0006896514 0.03768472 -0.0048961737 0.018089626 0.016888598 0.034044147 -0.0031862743 -0.002894238
0.00021307528 -0.047868885 0.005589287 -0.026149873 -0.020200511 0.023077076 -0.012066831 0.019570282
-0.0034855488 0.018391004 -0.021026578 -0.007772589 -0.00030447458 0.015178251 0.00687652 0.012329502
-0.02471795 0.015512343 -0.002053204 -0.03030297 0.000942425 0.049065825 0.026728943 -0.0083598215
0.0033640976 0.02237482 -0.016561225 0.010244723 0.0036313399 -0.019952917 0.010738638 -0.023382137
0.030827614 -0.03250059 -0.00014738794 -0.006667533 -0.028410826 -0.0009396595 0.02334873 -0.011808413
0.032146357 0.013764799 0.001843556 0.008062878 0.0020296539 0.0016117573 0.008873025 -0.017656531
-0.018968103 -0.0056090993 9.6925796e-05 -0.03274518 -0.044932045 -0.012943274 -0.03095365 -0.015261782
0.033817057 -0.01939629 -0.007361183 0.01062574 0.023297722 0.007841571 -0.006872277 -0.021942437
-0.018384641 0.02549679 -0.014272232 0.008681665 0.0164301 0.0033484993 -0.0021993686 0.01946315
0.0011681255 -0.028962009 -0.019864416 0.01177153 0.019325318 -0.007827734 -0.02012805 0.0036933245
0.008491203 -0.01285239 0.0019856223 0.014847639 0.0378581 0.010896949 0.025471795 0.013273514
0.020731356 -0.0049694353 -0.037522987 0.025916275 0.033057615 -0.01212014 -0.042905405 -0.007492914
0.033662234 0.008895993 0.009284611 0.013861862 -0.013544395 -0.005763741 -0.0011288808 0.014370788
0.009070409 0.0075355363 0.016283872 0.004153523 0.0118205035 -0.0037307148 0.0009481598 -0.016034113
-0.009128912 -0.047159467 0.031854857 -0.025586545 0.008046049 -0.031200498 0.048538197 -0.0056885825
-0.004320974 -0.0052833804 -0.014405863 0.0067776917 0.0035713247 0.0011095507 -0.025956646 -0.0053753587
-0.019083545 0.0059463843 0.019890167 -0.026575478 -0.005593325 -0.021121515 -0.008874648 -0.015085085
0.002406224 -0.028295083 0.00047525903 -0.0023152074 0.0064340257 0.0034001302 -0.027996419 0.0004467448
-0.009147093 -0.021706222 -0.0053219176 -0.0041384604 -0.0023854484 0.0033579215 0.016597824 -0.025198812
00000000: 16ba b5b9 756c 933b b482 4cbd 6dd0 473c
00000010: eb83 a23c 5d62 103d ada1 98bc 9387 8ebc
00000020: db8e d83c a1cc 21bc 9fc8 a7bb ffb3 c7bc
00000030: 45cc 203d 23c1 303d 9378 28bd 65ee b6bc
00000040: 7106 5b3c 3f60 faba dcc6 09bc 4faa 9e3c
00000050: 2053 263c 0313 f7bb 69bb 8bbc 45cf 81bb
00000060: 3736 0dbd c72e c2bc f714 3b3c 1de9 573c
00000070: a6f6 ab3c e114 a03c 1c25 5a3c 55db df3c
00000080: f80e 013c f9f3 a5bb 35e1 1d3c 64a8 00bc
00000090: 277a 743b 5879 e9bc b68e 4b3c d5de 083c
000000a0: d143 953c c456 7d38 a869 e1bc acc9 18bc
000000b0: 7b2f 9ebc 4fff c33b 44b1 363c 32b9 353c
000000c0: 100d fa3c e895 453c bd45 4d3d df2a b43c
000000d0: d5d3 273b 319e f93c 56a2 bdbc 27ca c2bc
000000e0: 1edc 5ebc c870 7dbc ca6c b0bc c57d 003c
000000f0: 8c71 d63b cafa 05bc f968 b1bb c4cc 993b
00000100: e572 323c a24b ef3c f2af 65bc 16d5 563c
00000110: 0e50 393c d2cc 873c 2a35 8ebc 1c53 85bb
00000120: c2f2 b1bc 0c6b 04bd 0c8f e23a 0d5b c2bc
00000130: 87bd f33c 4910 113d a87f b73c 2e1e 1c3c
00000140: 273b 593c 3293 57bc e04c 09bb 9dde 4cba
00000150: 2f6b 893c a3c1 8ebb e0cb 8dbc 2b57 02bd
00000160: 77e2 603b 737e 383c 085b 893c 4437 19bd
00000170: b2f4 8dbc 7d18 92bc 9721 6abc c549 39bc
00000180: b9c9 343a 4b5b 1a3d 1570 a0bb b230 943c
00000190: f559 8a3c e071 0b3d d0d0 50bb 42ad 3dbb
000001a0: f66c 5f39 2a12 44bd 5626 b73b 4238 d6bc
000001b0: 8b7b a5bc 230c bd3c f5b3 45bc db51 a03c
000001c0: ce6d 64bb bba8 963c ee3f acbc 34b1 febb
000001d0: e3a1 9fb9 33ae 783c 6e54 e13b ae01 4a3c
000001e0: 4c7d cabc 7b27 7e3c 0c8f 06bb ef3d f8bc
000001f0: 120d 773a 3ff9 483d a8f6 da3c a2f7 08bc
00000200: 3178 5c3b 664b b73c 68ab 87bc 7cd9 273c
00000210: c6fb 6d3b 4d74 a3bc 1df1 2f3c e58b bfbc
00000220: 318a fc3c 571f 05bd 268c 1ab9 527b dabb
00000230: d2bd e8bc 7b53 76ba d645 bf3c 1378 41bc
00000240: e6ab 033d c085 613c 79a3 f13a 291a 043c
00000250: f103 053b 9a41 d33a 2a60 113c 6ea4 90bc
00000260: ff62 9bbc 89cc b7bb a444 cb38 cf1f 06bd
00000270: aa0a 38bd 0710 54bc 8292 fdbc 8e0c 7abc
00000280: c183 0a3d f8e4 9ebc 1436 f1bb 9517 2e3c
00000290: ddda be3c ef79 003c d630 e1bb a0c0 b3bc
000002a0: 639b 96bc a5de d03c 14d6 69bc 8b3d 0e3c
000002b0: 6b98 863c 7f72 5b3b 4823 10bb 2f71 9f3c
000002c0: ca1b 993a bc41 edbc b3ba a2bc 60dd 403c
000002d0: 2150 9e3c e53f 00bc 95e3 a4bc b40b 723b
000002e0: b01e 0b3c d592 52bc 3721 023b 8343 733c
000002f0: 1811 1b3d 1e89 323c 3aaa d03c 2779 593c
00000300: ced4 a93c a5d6 a2bb b4b1 19bd 5e4e d43c
00000310: 6c67 073d 8d93 46bc 94bd 2fbd 1e87 f5bb
00000320: 69e1 093d 80c0 113c 7b1e 183c dd1c 633c
00000330: 4fe9 5dbc c4dd bcbb f4f6 93ba 7473 6b3c
00000340: 0e9c 143c a9ec f63b c165 853c 471a 883b
00000350: c9aa 413c 027f 74bb ed8d 783a f959 83bc
00000360: 6f91 15bc 492a 41bd 3d7a 023d e09a d1bc
00000370: 93d3 033c 3098 ffbc fdcf 463d 4a67 babb
00000380: f596 8dbb 3520 adbb 9206 6cbc 6617 de3b
00000390: e30c 6a3b 586e 913a 08a3 d4bc c723 b0bb
000003a0: 1855 9cbc e3d9 c23b b4f0 a23c d1b4 d9bc
000003b0: 3648 b7bb 0707 adbc f966 11bc 6f27 77bc
000003c0: bdb1 1d3b 17cb e7bc 302c f939 bcba 17bb
000003d0: 85d4 d23b b8d4 5e3b bf58 e5bc 1239 ea39
000003e0: b0dd 15bc 3fd1 b1bc 7b63 aebb ec9b 87bb
000003f0: 2f55 1cbb 9310 5c3b 29f8 873c bd6d cebc

transformer.blocks.0.ln1.weight f4 [48]
0.9944595 1.0011125 0.99411786 1.0034205 1.0035394 0.99922 1.0036839 1.0038078
0.99855435 0.9944055 1.0007168 1.000363 1.0030358 1.0030775 0.9959704 0.99175805
0.99411756 1.004642 1.0021232 1.0042224 0.9941268 0.9952118 0.9944231 0.9932394
0.9981639 0.99880713 0.99334323 1.0033818 1.0015987 0.994002 0.99484813 1.0012555
1.0025523 1.0056566 0.9946582 0.99440134 0.99570215 0.9967303 0.9999535 1.0018476
0.9935375 1.0028726 0.9997555 1.0021384 0.99348503 0.99538636 0.9957566 1.0015982
00000000: e694 7e3f 7424 803f 827e 7e3f 1570 803f
00000010: fb73 803f e2cc 7f3f b778 803f c67c 803f
00000020: 42a1 7f3f 5c91 7e3f 7d17 803f e50b 803f
00000030: 7a63 803f d864 803f ebf7 7e3f dbe3 7d3f
00000040: 7d7e 7e3f 1c98 803f 9345 803f 5c8a 803f
00000050: 187f 7e3f 33c6 7e3f 8392 7e3f f044 7e3f
00000060: ab87 7f3f d3b1 7f3f be4b 7e3f d16e 803f
00000070: 6334 803f ea76 7e3f 5eae 7e3f 2429 803f
00000080: a253 803f 5bb9 803f eba1 7e3f 1691 7e3f
00000090: 56e6 7e3f b829 7f3f f4fc 7f3f 8b3c 803f
000000a0: 7958 7e3f 215e 803f faef 7f3f 1246 803f
000000b0: 0955 7e3f a4d1 7e3f e8e9 7e3f 5f34 803f

transformer.blocks.0.ln1.bias f4 [48]
0.0077214884 0.0037088762 0.0059264665 0.0043537887 0.0011952935 0.0023545988 -0.0045684157 -0.0046511935
-1.5830563e-05 -0.0043688575 -0.00074060715 -0.0042131236 0.004174274 0.0042799073 0.003514975 0.008810625
0.0049557905 0.0037539226 -0.004338915 0.0049600564 -0.0056057395 0.00046826302 0.005251429 0.0063622743
-0.0052798823 0.0014025564 0.0049209404 -0.0044242106 -0.002331458 0.005398619 -0.0024358032 0.0042316522
0.001904991 -0.004338754 -0.00620383 0.0006874267 -0.0037931264 0.0036806748 -0.0024312644 -0.004788208
0.0049907067 0.0041857115 0.00459723 -0.0038325272 -0.004943134 -0.0039769122 0.0046260427 0.0036808255
00000000: 8a04 fd3b 9e10 733b ce32 c23b 3aaa 8e3b
00000010: 65ab 9c3a 9d4f 1a3b a6b2 95bb 0a69 98bb
00000020: e0cb 84b7 a228 8fbb 4e25 42ba 3e0e 8abb
00000030: 59c8 883b 773e 8c3b 7f5b 663b 715a 103c
00000040: 2f64 a23b 5f04 763b 752d 8ebb f887 a23b
00000050: 5ab0 b7bb 3381 f539 2e14 ac3b a07a d03b
00000060: dd02 adbb fcd5 b73a d73f a13b f8f8 90bb
00000070: 60cb 18bb e6e6 b03b ffa1 1fbb aca9 8a3b
00000080: e4b0 f93a 1b2c 8ebb 7f49 cbbb 6d34 343a
00000090: 1a96 78bb 7a37 713b d955 1fbb 66e6 9cbb
000000a0: 1589 a33b 4b28 893b 5ca4 963b 232b 7bbb
000000b0: 03fa a1bb c250 82bb 0f96 973b 013a 713b

transformer.blocks.0.attn.representation.weight f4 [144, 48]
-0.033697348 0.012531764 -0.0118109705 -0.007912009 -0.0049430905 -0.027568761 -0.05531047 -0.031676747
-0.041134544 0.023743952 -0.010326162 -0.0019223006 0.042173438 -0.025464348 0.011611065 -0.0015889454
0.016102653 0.0051707514 -0.0004741398 0.012166287 0.005412209 0.004894903 -0.005346461 0.017571593
0.042611666 0.031138688 0.0044020284 0.015765121 -0.00036691347 -0.019586615 0.0029331855 0.01032267
-0.017883696 0.0050911875 -0.0028599366 0.019016618 -0.0010065904 0.016562566 -0.025248641 -0.018213075
0.0103742555 -0.029406382 -0.012705771 -0.00013437819 -0.004152646 0.0049440875 0.0133664515 0.0007979276
-0.026351241 -0.050917864 -0.012072691 -0.031665843 0.018391341 0.015048981 -0.014111497 -0.01789373
0.014353715 -0.015634475 0.012720729 -0.010833454 -0.016956925 -0.032571327 0.023052903 -0.01803074
8.7786204e-05 0.008542843 -0.0047953683 -0.0047960933 -0.0125370845 -0.017279202 0.00813316 0.013426294
-0.019283952 0.0103698755 0.01700224 0.020838942 -0.007657423 0.022508163 0.02677345 0.016809618
0.0077321664 0.009729758 -0.019570962 0.0014662438 -0.0038608443 0.014739538 -0.013887572 -0.018734211
-0.017413026 -0.026631813 0.036881343 0.02128735 -0.0038775566 -0.016066896 0.04366834 -0.015240969
-0.031186195 0.018655676 0.015832838 0.0009630006 0.02647161 -0.033300903 -0.009053467 0.015771372
0.02485213 0.017643489 0.010095203 0.0052064112 -0.028124336 -0.014276388 -0.0057828575 -0.008292691
-0.0059555373 0.031192742 -0.02852296 -0.01774001 -0.024854954 -0.007905582 -0.022145433 -0.021587716
0.032438524 -0.04365136 0.00775562 0.0029423966 -0.008130358 -0.013125768 0.0015168497 -0.015288842
-0.06790548 0.012266185 -0.004916993 0.0044831266 -0.023253445 -0.025123497 0.016377583 0.014286078
-0.0052133175 -0.011663782 0.019619072 -0.002002916 -0.03220882 -0.02340432 -0.0038527723 0.006971383
-0.019981671 0.012400221 0.025392544 0.026112461 -0.014438711 -0.016188493 -0.00024116097 0.031170068
0.008922661 0.02938974 -0.002220009 -0.014430928 -0.0238008 -0.01233014 -0.017440887 0.0060824812
0.0050489414 0.0054529854 0.022236394 -0.0041927635 0.043802474 0.021721106 -0.01624354 -0.016643487
0.010069836 -0.012092409 0.02071895 -0.0076508475 -0.016636891 0.025654372 -0.02055042 -0.025706258
-0.012508886 -0.0154224085 0.00074151915 -0.008835685 0.008088347 -0.01546378 -0.0070482027 -0.009495659
0.048050217 5.6154022e-05 -0.039667495 -0.009187389 0.025743727 0.008428767 0.01075529 -0.013746439
0.0073235612 0.010548293 0.018184897 0.0006876453 -0.026652275 -0.008565146 -0.021582533 0.022423953
0.0074928063 -0.0019037938 -0.02073997 0.011316174 -0.013876685 0.0018111307 -0.0021275054 -0.00649172
-0.025624672 -0.027691478 0.008075629 0.03058316 0.0064968895 -0.0104546 0.027182104 -0.018851334
0.008316565 0.0012747846 0.027691634 -0.03830674 0.03130717 -0.024490671 0.008627764 -0.014693422
-0.016999938 0.030087793 0.020022716 -0.019721381 0.0151579715 -0.009517595 0.053504683 0.047363877
-0.008544571 0.013931526 -0.022011163 -0.0017231866 0.033056013 -0.013004502 0.010239883 -0.028111983
-0.020479195 -0.0096506 0.021363629 0.01494953 -0.026321111 0.02212955 0.03769661 0.03227356
0.018501 0.007517948 0.013310944 -0.013192076 0.011890277 -0.004258308 0.036433373 -0.0072859405
00000000: 3b06 0abd 0752 4d3c cd82 41bc 5fa1 01bc
00000010: a6f9 a1bb e2d7 e1bc 3b8d 62bd 7abf 01bd
00000020: b27c 28bd ad82 c23c 102f 29bc b4f5 fbba
00000030: 0ebe 2c3d 9c9a d0bc 563c 3e3c 2944 d0ba
00000040: b6e9 833c 686f a93b f795 f8b9 1b55 473c
00000050: e658 b13b 6c65 a03b 5e31 afbb 4df2 8f3c
00000060: 9289 2e3d 9016 ff3c e43e 903b db25 813c
00000070: 4b5e c0b9 1c74 a0bc b03a 403b 6b20 293c
00000080: d480 92bc fad3 a63b c66d 3bbb bdc8 9b3c
00000090: 92ef 83ba 38ae 873c 3dd6 cebc 9633 95bc
000000a0: c8f8 293c a7e5 f0bc de2b 50bc dfe7 0cb9
000000b0: eb12 88bb 0302 a23b f6fe 5a3c 042c 513a
000000c0: 8fde d7bc 408f 50bd 89cc 45bc 0bb4 01bd
000000d0: 70a9 963c 0090 763c e933 67bc df95 92bc
000000e0: d82b 6b3c df13 80bc 9b6a 503c cd7e 31bc
000000f0: 40e9 8abc 8369 05bd 71d9 bc3c 34b5 93bc
00000100: dc19 b838 48f7 0b3c 7722 9dbb 8c28 9dbb
00000110: 5868 4dbc 1d8d 8dbc f240 053c f5f9 5b3c
00000120: 61f9 9dbc 69e6 293c 4848 8b3c 6eb6 aa3c
00000130: 1feb fabb 0a63 b83c ff53 db3c 53b4 893c
00000140: 1d5e fd3b 9069 1f3c 4853 a0bc fa2e c03a
00000150: 3806 7dbb 1a7e 713c b388 63bc 7d78 99bc
00000160: c3a5 8ebc f62a dabc e410 173d cf62 ae3c
00000170: 9b1e 7ebb b99e 83bc 93dd 323d 42b5 79bc
00000180: 317a ffbc cad3 983c deb3 813c e071 7c3a
00000190: fdda d83c 8766 08bd fe54 14bc f732 813c
000001a0: b296 cb3c 1489 903c 5a66 253c 8b9a aa3b
000001b0: 0265 e6bc 83e7 69bc 207e bdbb 11de 07bc
000001c0: ab26 c3bb ec87 ff3c fca8 e9bc 7f53 91bc
000001d0: 9e9c cbbc 6a86 01bc 576a b5bc b9d8 b0bc
000001e0: 42de 043d c5cb 32bd db22 fe3b 39d5 403b
000001f0: 3135 05bc 760d 57bc 08d1 c63a 0d7e 7abc
00000200: 0712 8bbd 1cf8 483c ba1e a1bb 31e7 923b
00000210: 027e bebc cbcf cdbc 482a 863c 2710 6a3c
00000220: 7ad4 aabb 7319 3fbc 2db8 a03c 5b43 03bb
00000230: 65ed 03bd 6bba bfbc cb7e 7cbb 3370 e43b
00000240: 9ab0 a3bc 4c2a 4b3c 0604 d03c cde9 d53c
00000250: 5890 6cbc bb9d 84bc 28e0 7cb9 5f58 ff3c
00000260: 5a30 123c c1c2 f03c 927d 11bb b36f 6cbc
00000270: e5f9 c2bc 5b04 4abc 31e0 8ebc 8d4f c73b
00000280: 9771 a53b f5ae b23b 1929 b63c 7363 89bb
00000290: 396a 333d 76f0 b13c 2c11 85bc ec57 88bc
000002a0: f4fb 243c 3d1f 46bc caba a93c f6b3 fabb
000002b0: 174a 88bc 1e29 d23c 5b59 a8bc ee95 d2bc
000002c0: 12f2 4cbc 45ae 7cbc 8262 423a 8dc3 10bc
000002d0: fc84 043c cb5b 7dbc 9cf4 e6bb ae93 1bbc
000002e0: 4ed0 443d ec86 6b38 627a 22bd b486 16bc
000002f0: 82e4 d23c d018 0a3c f536 303c be38 61bc
00000300: 7cfa ef3b bfd2 2c3c 7ef8 943c 1843 343a
00000310: df55 dabc d354 0cbc dacd b0bc 70b2 b73c
00000320: 3786 f53b b888 f9ba dfe6 a9bc 7967 393c
00000330: 095b 63bc 7663 ed3a 9e6d 0bbb 7fb8 d4bb
00000340: d5ea d1bc 3dd9 e2bc a54f 043c 8989 fa3c
00000350: dce3 d43b c549 2bbc 01ad de3c 1d6e 9abc
00000360: 3442 083c ac16 a73a 91d9 e23c 87e7 1cbd
00000370: f23b 003d a9a0 c8bc 775b 0d3c aebc 70bc
00000380: 7443 8bbc ad7a f63c ae06 a43c bc8e a1bc
00000390: 2459 783c b0ef 1bbc ba27 5b3d a000 423d
000003a0: 87fe 0bbc 0e41 643c c150 b4bc 8cdc e1ba
000003b0: be65 073d d610 55bc 2fc5 273c 1a4b e6bc
000003c0: fcc3 a7bc 8d1d 1ebc c702 af3c e0ee 743c
000003d0: 5f9f d7bc 0849 b53c c367 1a3d 4831 043d
000003e0: 698f 973c 1e59 f63b 2516 5a3c 9423 58bc
000003f0: 70cf 423c 4789 8bbb 293b 153d e6be eebb

transformer.blocks.0.attn.representation.bias f4 [144]
0.0023824074 -0.006267324 -0.006679907 0.004791513 0.007953479 -0.006554242 0.0023400486 0.003841579
-0.0006375158 -0.005368929 0.0018647279 0.0050844634 -0.0002122394 -0.0072807716 -0.005014972 -0.0058372617
-0.00694362 -0.0030524663 -0.0052971235 -0.0045993384 0.00415882 -0.0056542745 -0.0003957543 0.0038071244
-0.0021124983 -0.0022566607 -0.004054818 0.0038826065 0.002029286 -0.00736011 0.0034864165 0.004293677
0.00021632283 0.004234997 -0.0056741606 -0.00010840001 0.0024506685 0.0036047893 0.0051504862 0.0068969056
-0.0020420176 0.0030259292 0.0025430894 0.003892941 0.0039926786 0.002694123 -0.0035856678 0.0039776494
2.5873579e-08 -2.2999062e-07 -1.4323533e-07 -1.45742245e-08 3.6682437e-07 -2.9760403e-07 -6.2237085e-08 -1.4193766e-07
2.984857e-07 -5.37208e-07 2.626523e-07 8.091371e-07 -1.4272096e-07 -1.7273021e-07 4.4115046e-07 3.0563766e-07
-1.9523958e-07 -5.497264e-07 -1.4864724e-09 -1.6675585e-07 1.7665432e-07 -1.3396904e-07 3.9592547e-07 1.6654603e-07
6.384029e-08 2.162101e-07 6.98203e-08 1.7585134e-07 -3.0032263e-07 -3.2138615e-07 -2.3775848e-07 7.359924e-08
-1.01249505e-07 4.0683523e-07 -1.940941e-07 -2.6161322e-07 1.442293e-07 4.203435e-07 -4.3598945e-08 -1.3954175e-07
6.3741744e-08 5.089691e-07 7.299851e-07 2.1837623e-07 -2.6422808e-07 1.05158456e-07 -2.2200994e-07 1.6339723e-07
0.004104136 0.006475521 0.006431356 0.0044447295 -0.0044416357 -0.0049098586 0.0043366803 -0.0021160156
-0.0048578074 -0.0038660166 -0.004379748 -0.0051351893 -0.004570905 5.4172793e-05 0.005182627 0.0038374295
-0.0049174293 0.0048264666 0.005869259 -0.0052336613 0.0040914607 -0.0045551015 0.004676613 0.0038920036
0.004167173 0.0036510897 -0.0037458453 0.0046949834 0.0043809577 0.004552337 0.0007791713 -0.004368763
0.005079477 -0.002969857 -0.0029290658 0.004038623 -0.0019325353 -0.004804735 -0.0046784035 -0.0012900732
0.00029376795 0.0048393277 -0.0025697097 0.0050392384 0.0056335055 -0.002674812 0.0025208916 0.0045071603
00000000: 2a22 1c3b 205e cdbb 1fe3 dabb 2002 9d3b
00000010: 4f4f 023c f8c4 d6bb 805b 193b 00c3 7b3b
00000020: f61e 27ba d7ed afbb e369 f43a 929b a63b
00000030: 958c 5eb9 8a93 eebb a254 a4bb 8046 bfbb
00000040: 4e87 e3bb e30b 48bb 7e93 adbb 0cb6 96bb
00000050: b646 883b 7e47 b9bb 3e7d cfb9 f380 793b
00000060: d771 0abb 7ce4 13bb 47de 84bb 5473 7e3b
00000070: c5fd 043b 142d f1bb 5d7c 643b f9b1 8c3b
00000080: b8d4 6239 bbc5 8a3b 4fee b9bb d054 e3b8
00000090: 659b 203b 543e 6c3b 69c5 a83b 70ff e13b
000000a0: 5fd3 05bb ab4e 463b f6a9 263b b620 7f3b
000000b0: 04d5 823b e28f 303b 86fd 6abb f156 823b
000000c0: 9a40 de32 57f3 76b4 3acc 19b4 1e62 7ab2
000000d0: f5ef c434 63c6 9fb4 33a7 85b3 8767 18b4
000000e0: 903f a034 a734 10b5 a802 8d34 7a33 5935
000000f0: d73e 19b4 b877 39b4 42d7 ec34 8516 a434
00000100: 0ca3 51b4 e990 13b5 994c ccb0 800d 33b4
00000110: 5fae 3d34 21d9 0fb4 958f d434 d3d3 3234
00000120: 9218 8933 6127 6834 1ef0 9533 a6d1 3c34
00000130: 073c a1b4 fa8a acb4 8e4a 7fb4 9c0d 9e33
00000140: 816e d9b3 026b da34 2e68 50b4 d973 8cb4
00000150: 73dd 1a34 92ab e134 8c41 3bb3 f2d4 15b4
00000160: 65e2 8833 17a0 0835 32f4 4335 cd7a 6a34
00000170: 3bdb 8db4 79d3 e133 a161 6eb4 4a72 2f34
00000180: fd7b 863b 9b30 d43b 20be d23b 18a5 913b
00000190: 248b 91bb e1e2 a0bb b61a 8e3b daac 0abb
000001a0: 3e2e 9fbb ff5c 7dbb fd83 8fbb 1745 a8bb
000001b0: 88c7 95bb 9837 6338 07d3 a93b 627d 7b3b
000001c0: 6322 a1bb 5627 9e3b ea52 c03b 227f abbb
000001d0: a911 863b f642 95bb 463e 993b fc10 7f3b
000001e0: c88c 883b 1f47 6f3b db7c 75bb 60d8 993b
000001f0: 238e 8f3b c52b 953b 4d41 4c3a d727 8fbb
00000200: be71 a63b efa1 42bb 92f5 3fbb 6d56 843b
00000210: 204d fdba 0a71 9dbb 4b4d 99bb ac17 a9ba
00000220: de04 9a39 3993 9e3b 9368 28bb 3220 a53b
00000230: 4599 b83b e64b 2fbb 8b35 253b cdb0 933b

transformer.blocks.0.attn.proj.weight f4 [48, 48]
-0.026929643 -0.054549526 -0.0401842 -0.026441691 -0.0188853 -0.0003961487 -0.005313744 0.0042585027
0.008047297 0.016529825 0.015746148 0.0020602257 -0.03186832 -0.0003014173 -0.020336866 0.0015369282
-0.033531107 0.023802212 -0.017191986 0.029174967 0.024311358 -0.029688302 0.018160397 0.023445616
0.017327698 0.01423929 -0.021957228 -0.015474166 -0.02518416 0.0059252027 -0.016965535 -0.045142453
0.021915035 0.0005633749 -0.010368205 0.005410377 0.005120472 0.031656753 -0.030014232 0.0056817643
0.015385334 0.0020223702 -0.012912659 0.006145703 -0.03956867 -0.027468374 0.00056306197 0.0005340766
0.022295557 -6.156854e-05 0.014721471 -0.03275662 0.011602798 -0.0035985154 0.0010931673 -0.021259453
-0.010407721 0.011156219 0.037038174 0.04037959 0.05550088 -0.025927396 0.020127125 0.024076106
-0.046563428 -0.0112548275 -0.00077517313 -0.0022911904 0.01249401 0.029133508 0.009922757 0.003136123
0.016703628 -3.620739e-05 -0.022595925 -0.011291354 -0.004825566 -0.023081508 0.01451637 0.011160365
-0.004022251 0.028530678 -0.0025785528 -0.007525154 0.034158584 -0.0084351385 -0.0018865995 0.029840024
-0.027595239 -0.020367267 0.016468173 -0.021078112 -0.0046577714 0.008766254 0.012710962 0.013875644
-0.021260267 -0.017084453 0.018304337 -0.011997357 0.016520733 0.006078611 0.014083735 -0.016047744
0.011027322 -0.010312017 0.004286315 0.018845625 0.022104142 0.028431898 0.013071768 -0.030542538
0.011691745 -0.0069498713 0.038359474 0.01890215 0.004878108 0.005574633 -0.0055879 0.002080699
0.019754838 0.016676182 -0.03089752 0.016873984 -0.041223694 0.01390472 -0.024403043 -0.0060170684
0.0073277913 0.029439783 -9.967195e-05 0.0062312367 -0.0010347266 -0.0033658207 -0.0047541684 -0.019129237
0.032543175 0.03399095 -0.0059561874 -0.00037067378 0.008453492 0.001165833 0.0056779706 0.0142238615
0.03150267 0.036124617 0.013828984 -0.033455282 0.008298869 0.020787455 -0.015137375 -0.0014698058
0.010718884 0.012256133 -0.021168984 0.0123744905 0.025842717 -0.027170489 0.020584181 0.0051714373
-0.017736541 -0.017790733 -0.021635085 0.0076831365 -0.020716457 -0.019984754 -0.020131081 -0.027538484
0.016660562 0.021166878 -0.029449306 0.008122228 -0.024290396 0.040317573 0.0033866554 -0.03135445
-0.022165125 -0.025640685 -0.017980454 0.0086036045 -0.008286031 -0.013080357 -0.036184333 0.0043792855
0.0015076993 0.031221358 -0.03545416 -0.0070160576 -0.01284686 0.03287358 0.022443336 -0.01012233
0.0068032295 0.030791704 0.014197018 -0.022770347 -0.013537104 0.0149178775 0.003637813 -0.010774453
-0.008317246 0.004936294 -0.027538773 0.031262305 0.03124143 0.031627994 0.0039480375 0.025152158
-0.031241115 -0.003097882 0.023751596 0.012461075 0.016974567 -0.004797884 0.0076264013 0.012388367
-0.0042257756 0.0036384405 -0.021657277 0.011381063 0.008872598 0.037187614 0.016302014 0.013308587
-0.018976292 -0.023932414 -0.04110203 0.018762998 -0.04496443 -0.014958002 0.015712023 0.018265892
0.0007430113 -0.008271114 -0.0048815114 0.03196012 -0.03426062 -0.03407936 0.022394039 -0.030820742
-0.058094975 0.037685204 0.009737226 -0.01218901 -0.016395174 -0.038320072 0.014578086 -0.0017702321
0.04513296 0.0056426725 -0.02526069 0.021349723 -0.016466424 -0.0051294304 0.015364805 -0.029808719
00000000: 8e9b dcbc 536f 5fbd 3098 24bd 3f9c d8bc
00000010: 58b5 9abc 2eb2 cfb9 ea1e aebb e98a 8b3b
00000020: cfd8 033c 8e69 873c 11fe 803c da04 073b
00000030: 5b88 02bd 8c07 9eb9 8099 a6bc c172 c93a
00000040: ea57 09bd dbfc c23c 35d6 8cbc 5700 ef3c
00000050: 9d28 c73c e234 f3bc 1dc5 943c 0511 c03c
00000060: d1f2 8d3c e94b 693c a5df b3bc 5b87 7dbc
00000070: 034f cebc 3428 c23b 4efb 8abc 4be7 38bd
00000080: 2987 b33c 73af 133a 67df 29bc 8849 b13b
00000090: a2c9 a73b 83aa 013d 68e0 f5bc 182e ba3b
000000a0: c512 7c3c be89 043b 9e8f 53bc e561 c93b
000000b0: c212 22bd 5b05 e1bc 739a 133a 4601 0c3a
000000c0: 2ca5 b63c 5c1e 81b8 5332 713c ce2b 06bd
000000d0: a919 3e3c 12d5 6bbb 9c48 8f3a 4e28 aebc
000000e0: 2585 2abc 93c8 363c 57b5 173d 1265 253d
000000f0: e454 633d b165 d4bc a4e1 a43c 413b c53c
00000100: 4bb9 3ebd 2b66 38bc fd34 4bba cc27 16bb
00000110: adb3 4c3c 65a9 ee3c 0f93 223c 6a87 4d3b
00000120: 0cd6 883c 64dd 17b8 171b b9bc 5fff 38bc
00000130: c81f 9ebb 6e15 bdbc 12d6 6d3c f7d9 363c
00000140: 16cd 83bb 2bb9 e93c f0fc 28bb 9195 f6bb
00000150: dfe9 0b3d 8933 0abc c647 f7ba 1173 f43c
00000160: 690f e2bc 41d9 a6bc 43e8 863c 01ac acbc
00000170: 38a0 98bb 56a0 0f3c a441 503c ab56 633c
00000180: 032a aebc b2f4 8bbc faf2 953c 9090 44bc
00000190: 7d56 873c 162f c73b 77bf 663c 8f76 83bc
000001a0: f1ab 343c bcf3 28bc 3774 8c3b 2462 9a3c
000001b0: bf13 b53c 03ea e83c f82a 563c 5834 fabc
000001c0: bc8e 3f3c bfbb e3bb d31e 1d3d afd8 9a3c
000001d0: 89d8 9f3b 69ab b63b b41a b7bb 565c 083b
000001e0: e6d4 a13c 7d9c 883c cc1c fdbc 4f3b 8a3c
000001f0: 2dda 28bd 9fd0 633c e4e8 c7bc d42a c5bb
00000200: f81d f03b b32b f13c f806 d1b8 672f cc3b
00000210: aa9f 87ba 1a95 5cbb dbc8 9bbb ebb4 9cbc
00000220: fe4b 053d 183a 0b3d 1f2c c3bb fe56 c2b9
00000230: 8480 0a3c ddce 983a 450e ba3b 330b 693c
00000240: f208 013d 68f7 133d f792 623c 6808 09bd
00000250: fbf7 073c 744a aa3c c102 78bc 80a6 c0ba
00000260: 429e 2f3c f3cd 483c 946a adbc 60be 4a3c
00000270: 1bb4 d33c a594 debc 28a0 a83c 2975 a93b
00000280: 394c 91bc dfbd 91bc 103c b1bc d2c2 fb3b
00000290: 8fb5 a9bc 11b7 a3bc f0e9 a4bc 6398 e1bc
000002a0: bb7b 883c 2966 ad3c ac3f f1bc 1813 053c
000002b0: a7fc c6bc 0a24 253d a6f2 5d3b 866d 00bd
000002c0: a393 b5bc 6a0c d2bc bf4b 93bc 22f6 0c3c
000002d0: 22c2 07bc fe4e 56bc 0636 14bd 1c80 8f3b
000002e0: fe9d c53a efc3 ff3c 6238 11bd f5e6 e5bb
000002f0: a37b 52bc 72a6 063d 16db b73c 21d8 25bc
00000300: a0ed de3b e23e fc3c 9c9a 683c e188 babc
00000310: bbca 5dbc 1d6a 743c 6068 6e3b 5587 30bc
00000320: 0f45 08bc a3c0 a13b fe98 e1bc e70c 003d
00000330: 07ee ff3c 5b8c 013d 8a5e 813b e60b ce3c
00000340: 5eed ffbc d605 4bbb b592 c23c 8929 4c3c
00000350: 3f0e 8b3c 9137 9dbb e4e6 f93b 94f8 4a3c
00000360: 6078 8abb e772 6e3b 9a6a b1bc a377 3a3c
00000370: 605e 113c 0a52 183d cd8b 853c 420c 5a3c
00000380: 2b74 9bbc e90d c4bc 9a5a 28bd dcb4 993c
00000390: 9f2c 38bd 6812 75bc 80b6 803c 5aa2 953c
000003a0: a5c6 423a 9183 07bc 16f5 9fbb 9de8 023d
000003b0: dd54 0cbd cd96 0bbd b473 b73c c87b fcbc
000003c0: fff4 6dbd cd5b 1a3d e388 1f3c 6ab4 47bc
000003d0: 2c4f 86bc 82f5 1cbd edd8 6e3c 2207 e8ba
000003e0: 57dd 383d 2be6 b83b 82ef cebc 9de5 ae3c
000003f0: 98e4 86bc c814 a8bb aabc 7b3c 6a31 f4bc

transformer.blocks.0.attn.proj.bias f4 [48]
0.0032276036 -0.005102059 0.0028125457 0.0051753335 -0.00525702 -0.008707496 -0.00257973 -0.004918962
0.004189343 0.00092405005 -0.0050061825 -0.005433348 0.0040094773 0.004417931 -0.00494031 -0.002101062
0.0039111357 -0.004988911 -0.0045567886 -0.003610423 0.0050894665 -0.0051071113 -0.0027741718 -0.005135623
0.00266443 0.0065236683 -0.0049641635 0.005097617 0.0051415623 -0.0056319386 0.0044550616 -0.0008954196
-0.004691955 0.005609046 -0.0021490923 0.0050461306 0.0054491274 0.00663749 0.0052760984 -0.0033619946
0.004196858 0.0051952587 -0.005216322 -0.0052846773 0.002948204 0.004427358 -0.0012791282 0.0051132264
00000000: 3486 533b 2c2f a7bb b052 383b d895 a93b
00000010: 1443 acbb e3a9 0ebc b010 29bb 3e2f a1bb
00000020: c246 893b f33b 723a e70a a4bb 3a0a b2bb
00000030: ef61 833b 4bc4 903b 53e2 a1bb f9b1 09bb
00000040: fc28 803b 057a a3bb 1d51 95bb d99c 6cbb
00000050: 8ac5 a63b 8e59 a7bb e1ce 35bb ba48 a8bb
00000060: b89d 2e3b 7fc4 d53b 6caa a2bb e909 a73b
00000070: 8d7a a83b 208c b8bb c4fb 913b 98ba 6aba
00000080: f9be 99bb 17cc b73b c9d7 0cbb 035a a53b
00000090: 988e b23b 4d7f d93b 1fe3 ac3b e954 5cbb
000000a0: cc85 893b fd3c aa3b aeed aabb 162b adbb
000000b0: a836 413b 5f13 913b 6ca8 a7ba da8c a73b

transformer.blocks.0.ln2.weight f4 [48]
1.0103304 0.99491113 1.010506 1.0039772 0.99821943 1.002211 0.9925473 1.0024672
1.0064906 1.0096378 1.0032334 0.9994954 0.9975558 0.9956937 1.0046362 0.9989252
0.99100083 1.0092812 0.99298143 1.0042475 0.9954115 0.9937367 1.0077134 0.98990154
1.0097295 0.99556637 1.0001597 1.0055194 1.0031712 1.0066736 0.9930893 1.0023485
1.0092441 1.0032252 1.0087883 0.9967481 0.9993193 1.006374 0.9948582 0.99965954
1.0035601 1.0091354 1.000097 1.0040295 1.0097252 1.0024127 1.0096976 1.005846
00000000: 8252 813f 7fb2 7e3f 4358 813f 5382 803f
00000010: 4f8b 7f3f 7348 803f 9417 7e3f d850 803f
00000020: afd4 803f d03b 813f f469 803f eede 7f3f
00000030: d15f 7f3f c8e5 7e3f eb97 803f 90b9 7f3f
00000040: 3bb2 7d3f 2030 813f 0834 7e3f 2f8b 803f
00000050: 4ad3 7e3f 8765 7e3f c1fc 803f 306a 7d3f
00000060: d13e 813f 70dd 7e3f 3c05 803f dcb4 803f
00000070: ea67 803f aeda 803f 1a3b 7e3f f54c 803f
00000080: e92e 813f af69 803f fa1f 813f e22a 7f3f
00000090: 64d3 7f3f ddd0 803f 07af 7e3f b0e9 7f3f
000000a0: a874 803f 592b 813f 2e03 803f 0a84 803f
000000b0: ad3e 813f 0f4f 803f c53d 813f 90bf 803f

transformer.blocks.0.ln2.bias f4 [48]
0.0054236036 0.0065368353 0.0026953856 0.005099183 -0.0016099787 0.0039515663 0.00069616246 -0.0038710637
0.004413028 -0.00056221854 0.0049858657 -0.004622431 -0.0053179865 -0.006647425 -0.0049555497 0.004189183
0.0054090354 -0.00032224337 -0.0053140675 -0.003989156 0.0046197516 0.005550122 -0.00015731453 -0.004881946
0.0020271624 0.0066377018 -0.0052108243 -0.0042521446 0.005097575 -0.0031811 0.0049118083 -0.0064430204
0.0043085264 0.0055721183 0.004540461 -0.004169535 -0.005095083 -0.0035209684 -0.006363614 0.0063711423
0.0040932745 0.0052075423 0.0068601887 -0.0049780086 0.006190058 0.004218451 -0.0060467073 0.0052717426
00000000: 7cb8 b13b f332 d63b 11a5 303b 0c17 a73b
00000010: ec05 d3ba 247c 813b ac7e 363a acb1 7dbb
00000020: 299b 903b d961 13ba 7960 a33b c377 97bb
00000030: 8142 aebb a4d2 d9bb 2a62 a2bb 6a45 893b
00000040: 473e b13b c6f2 a8b9 a121 aebb 77b7 82bb
00000050: 4961 973b ccdd b53b ccf4 24b9 bbf8 9fbb
00000060: 24da 043b 1481 d93b 90bf aabb 9355 8bbb
00000070: 8f09 a73b 007a 50bb 3cf3 a03b f91f d3bb
00000080: 8a2e 8d3b 5196 b63b 26c8 943b 98a0 88bb
00000090: a7f4 a6bb 0cc0 66bb dd85 d0bb 04c5 d03b
000000a0: e020 863b 08a4 aa3b 6fcb e03b 901e a3bb
000000b0: f8d5 ca3b ef3a 8a3b 7523 c6bb 95be ac3b

transformer.blocks.0.ffwd.lin.weight f4 [192, 48]
0.021182701 -0.0032794084 0.042508975 0.004492592 -0.0122982515 0.060322322 0.016900627 0.033353873
-0.012888851 -0.051794786 0.0052702734 -0.016455848 0.0072518745 -0.005588833 0.023617072 0.016571475
-0.017578613 0.013001628 0.010243168 -0.016493205 0.014838207 -0.010727358 -0.013193193 -0.014306138
-0.004652633 0.0033480905 0.0126179615 -0.010496684 0.038106702 -0.0051714857 -0.03282311 -0.007537551
0.012564205 -0.019988572 -0.009519537 0.008536548 0.02093936 -0.01240151 0.010213884 0.02664828
0.013912736 -0.0008546496 0.02291045 0.012783262 0.026716229 0.01578468 0.019380584 0.01985107
0.041373 0.011362969 -0.018703572 0.002564763 0.056983102 -0.004070473 0.0023651726 -0.015705163
0.0139317345 -0.022823758 -0.025825318 -0.010230881 -0.022082206 0.011312867 0.007010222 0.040683057
0.03729469 0.00038207404 0.0027231595 0.0056171883 0.002726458 0.007993329 0.049249288 -0.016820267
-0.029438322 -0.014376947 -0.0014637206 -0.00071792526 9.9254015e-05 -0.02935522 0.007476224 -0.026718756
0.014070751 -0.04212828 -0.018433332 0.008536391 0.017812442 0.0013255888 0.0020564725 0.008114396
0.0010385673 -0.014404709 -0.009497726 -0.021687845 0.051098697 -0.007180213 0.0075275064 0.02611349
-0.00013618474 -0.040037826 -0.01790987 0.011661885 0.008425286 -0.0020355245 0.009414347 0.0044999495
-0.017888244 0.02401565 0.00042318704 -0.02300117 -0.03537341 -0.007168047 0.006607993 -0.0072428286
0.014301199 -0.0046081687 0.0010057546 -0.025610859 -0.014699848 0.018659005 -0.018890236 -0.023948755
-0.035046775 0.02128992 -0.01684767 0.05838203 -0.02029562 -0.01974473 -0.014234081 -0.02043782
0.023054555 -0.013037019 0.029542746 0.024300266 -0.014851102 -0.0059278957 -0.0073805517 0.021494774
0.0011051728 0.020425964 -0.01725649 -0.0332374 0.04694588 0.0042296266 -0.045496725 0.012789207
-0.004179745 -0.00901093 -0.012461575 0.0018176407 -0.025001807 0.0068404553 -0.0015336361 -0.007683588
-0.017660024 0.021825524 -0.03216661 -0.0063103423 -0.0129515445 0.02347563 -0.025045022 0.00046793092
0.0029261007 -0.029667584 0.00296046 -0.02453333 0.01568196 -0.0018820359 0.00048585795 0.010764135
-0.0158499 -0.006558818 0.008543671 0.0009960937 0.04473374 -0.010893694 0.036137298 0.030674806
-0.006951333 0.035219338 0.030894633 0.012350718 0.012977532 -0.017014896 0.004965599 -0.0053012674
-0.0149044655 0.0032233826 -2.2362394e-05 -0.027388446 0.008344207 0.00838988 -0.00895082 0.030661969
-0.02056586 0.013993181 0.023408264 -0.0054275733 -0.00044711912 -0.022151778 0.027543103 0.005098968
0.024211692 -0.0075234957 -0.009491267 0.0025813694 -0.006804251 0.016218288 0.00105006 0.003385208
0.002506601 0.010360752 0.015022333 0.019957349 -0.007716326 -0.03517677 0.009763743 0.018718269
-0.014692321 -0.0027891886 -0.008077653 -0.003778978 0.0053582955 -0.021983525 0.027158469 -0.00018861983
-0.03049641 -0.018773412 -0.010306496 0.0025983439 0.002696002 0.03209008 0.0019317118 0.02067325
0.049212135 0.014030491 -0.018296316 0.008313943 0.00912206 0.016981814 0.0057097394 0.02910242
0.02758138 -0.03183886 -0.010078237 -0.02413838 -0.036894202 0.0046376744 0.032317694 0.008193795
-0.011579007 0.031477135 0.060004238 -0.03336907 -0.00010527611 0.015378588 -0.0047448548 0.042796716
00000000: 5887 ad3c 58eb 56bb e41d 2e3d 9836 933b
00000010: 9b7e 49bc 8a14 773d 2f73 8a3c 129e 083d
00000020: c22b 53bc c526 54bd 42b2 ac3b 6ace 86bc
00000030: 22a1 ed3b 8722 b7bb 9778 c13c e7c0 873c
00000040: 0601 90bc c804 553c f6d2 273c c21c 87bc
00000050: f31b 733c cdc1 2fbc 4328 58bc 4b64 6abc
00000060: 1d75 98bb a36b 5b3b 91bb 4e3c 49fa 2bbc
00000070: c615 1c3d 9175 a9bb 8771 06bd 90fd f6bb
00000080: 18da 4d3c 13bf a3bc d5f7 1bbc e1dc 0b3c
00000090: 0589 ab3c b42f 4bbc 2258 273c 7e4d da3c
000000a0: 3ff2 633c 900a 60ba b2ae bb3c e370 513c
000000b0: fedb da3c e04e 813c 08c4 9e3c b69e a23c
000000c0: bc76 293d bf2b 3a3c 3c38 99bc 9515 283b
000000d0: 1d67 693d 9a61 85bb 0301 1b3b 1da8 80bc
000000e0: ee41 643c e4f8 babc 9e8f d3bc 6d9f 27bc
000000f0: bee5 b4bc 9a59 393c 01b6 e53b 47a3 263d
00000100: 51c2 183d 1c51 c839 0977 323b 6410 b83b
00000110: 60ae 323b 74f6 023c 9fb9 493d a8ca 89bc
00000120: a328 f1bc 498d 6bbc 50da bfba 2633 3cba
00000130: 9826 d038 5c7a f0bc 1dfb f43b 4be1 dabc
00000140: 0289 663c b48e 2cbd 8001 97bc 38dc 0b3c
00000150: 66eb 913c 61bf ad3a e2c5 063b 3ef2 043c
00000160: 8920 883a bb01 6cbc 5a9c 1bbc b5aa b1bc
00000170: de4c 513d fe47 ebbb 4da9 f63b f5eb d53c
00000180: d0cc 0eb9 b4fe 23bd b8b7 92bc 7e11 3f3c
00000190: 360a 0a3c 6f66 05bb a23e 1a3c 5074 933b
000001a0: 5e8a 92bc 78bc c43c 34df dd39 f36c bcbc
000001b0: b5e3 10bd f0e1 eabb dd87 d83b 4055 edbb
000001c0: 934f 6a3c 1f00 97bb 86d3 833a ddcd d1bc
000001d0: a2d7 70bc c5da 983c b2bf 9abc 2e30 c4bc
000001e0: 358d 0fbd 3368 ae3c 2004 8abc ff21 6f3d
000001f0: 0043 a6bc b3bf a1bc 1036 69bc 376d a7bc
00000200: e8dc bc3c 3999 55bc a103 f23c 5a11 c73c
00000210: 0952 73bc cb3e c2bb 8ed8 f1bb cf15 b03c
00000220: 72db 903a 5a54 a73c 7c5d 8dbc f123 08bd
00000230: 534a 403d ae98 8a3b c65a 3abd d289 513c
00000240: 3ef6 88bb 94a2 13bc a22b 4cbc e73d ee3a
00000250: 97d0 ccbc e625 e03b 4a04 c9ba 9cc6 fbbb
00000260: c1ab 90bc 71cb b23c 23c1 03bd fdc6 cebb
00000270: b732 54bc f74f c03c 382b cdbc a054 f539
00000280: d3c3 3f3b 6f09 f3bc 4704 423b 1ffa c8bc
00000290: 7477 803c a5ae f6ba c0ba fe39 0e5c 303c
000002a0: a6d7 81bc 5aeb d6bb c1fa 0b3c 5c8f 823a
000002b0: ba3a 373d 777b 32bc b404 143d bb49 fb3c
000002c0: 02c8 e3bb 2742 103d be16 fd3c aa5a 4a3c
000002d0: b79f 543c d362 8bbc 77b6 a23b 41b6 adbb
000002e0: dc31 74bc 633f 533b e096 bbb7 bc5d e0bc
000002f0: 24b6 083c b575 093c 76a6 12bc cf2e fb3c
00000300: bc79 a8bc a843 653c b0c2 bf3c c9d9 b1bb
00000310: 506b eab9 a577 b5bc 13a2 e13c 3e15 a73b
00000320: 9957 c63c a887 f6bb 4281 1bbc 312c 293b
00000330: 32f6 debb 37dc 843c 2ba2 893a 5eda 5d3b
00000340: c945 243b 25c0 293c 3b20 763c 987d a33c
00000350: 3cd9 fcbb 8415 10bd 1bf8 1f3c 0e57 993c
00000360: 10b8 70bc d2ca 36bb 2258 04bc bba8 77bb
00000370: a494 af3b cb16 b4bc 707b de3c 40c8 45b9
00000380: 9bd3 f9bc b3ca 99bc 94dc 28bc fa48 2a3b
00000390: 68af 303b e370 033d 7e31 fd3a f35a a93c
000003a0: aa92 493d 25e0 653c 28e2 95bc 3437 083c
000003b0: b174 153c 721d 8b3c c418 bb3b 3368 ee3c
000003c0: 59f2 e13c 7769 02bd 311f 25bc dabd c5bc
000003d0: 601e 17bd a2f7 973b 8f5f 043d 443f 063c
000003e0: e0b5 3dbc 2bee 003d 01c7 753d 02ae 08bd
000003f0: aec7 dcb8 79f6 7b3c ba7a 9bbb 9c4b 2f3d

transformer.blocks.0.ffwd.lin.bias f4 [192]
0.0058152014 0.005400107 0.0044359425 0.0034422488 0.004239696 0.005036637 0.0055510513 0.0062468187
-0.0052285222 0.0044694296 0.0052723004 0.00577892 -1.1157303e-05 -0.0039799763 0.0034204237 0.0021620297
-0.005399114 -0.0052143154 0.0005754306 0.0016844391 0.005876045 0.0055266987 -0.0035120135 -0.0060594813
-0.0054202713 -0.0033170395 0.005230993 -0.004035526 0.00611166 -0.0054947436 0.004112394 0.0052733934
0.005653462 0.003300514 0.0038622592 -0.0049754283 0.00018597956 0.004269893 -0.0059658415 0.00036534658
0.003855228 0.003181237 -0.004771324 0.0014736915 0.0029218195 -0.0055985134 -0.0045679626 0.0056031994
-0.0052183485 -0.0046609542 0.0046173204 -0.0045955544 -0.0014037499 0.0046170102 0.0040803608 -0.0005206896
-0.0052231965 0.0012339203 0.00069132564 -0.0055556083 -0.001319392 0.0042835777 -0.0046900604 0.0053256303
0.005723132 0.002271607 0.005242244 0.0051634996 0.003707173 0.004544753 -0.0056132246 -0.0047718687
0.0077810516 6.419943e-05 0.0066206753 -0.0041768653 0.0025453244 -0.0037434506 0.0022286787 -0.0046799933
0.0066270805 -0.005840143 -0.0002420647 0.005216961 -0.0059899315 0.0059910454 0.0011932752 -0.003364796
-0.0051348726 -0.003956831 -0.0031653824 0.001123096 0.0056336434 0.0053844475 -0.004504439 -0.0022680212
-0.0027048925 0.0050718747 0.0056050625 -0.004714602 -0.0049435003 0.0044812597 0.0070693046 -0.0055051693
0.0053387866 -0.0036616623 0.005040396 0.005255242 -0.0050454666 -0.0025996508 0.0054541016 -0.0037163622
0.0013179189 0.0025245193 0.0055307653 -0.0041025123 -0.003993602 -0.006403969 -0.002875791 -0.005592741
0.0063249054 0.005863779 -0.004137842 0.0018509876 0.0051007355 0.006271133 -0.0048901136 -0.0035618944
-0.0029288987 -0.005426101 -0.005480523 0.0046861754 0.003490713 0.0009341663 0.003879175 -0.0046290183
-0.006269957 0.0048708287 0.0003221748 0.005563229 0.0049016196 0.0043444787 0.005866541 0.003325714
0.0036333767 0.0047159838 -0.0031632555 -0.0050749937 -0.0025084023 -0.0054432615 0.0037234228 -0.005316819
0.0043724375 0.0056892056 0.0016355712 0.0059372536 -0.0045639253 0.006339107 -0.0023431748 0.0054099057
-0.0010583908 0.005382647 -0.0041035763 0.0042267162 0.0047744187 -0.005707834 -0.0059224563 0.0054653813
0.0056221653 -0.0050840904 -0.0059651313 0.005302792 0.005524522 0.0035652637 -0.0044532097 -0.004109673
-0.0053707696 -0.0035213518 0.0044829734 -0.0058903573 0.002647186 0.0056512337 -0.0040109353 0.0023234074
-0.005296069 -0.004365735 0.004738908 0.0046527893 -3.5843652e-05 -0.005191625 -0.0030029062 -0.005518688
00000000: 728d be3b 61f3 b03b 625b 913b 5a97 613b
00000010: 26ed 8a3b 600a a53b 98e5 b53b 1db2 cc3b
00000020: 0654 abbb 4b74 923b 43c3 ac3b 185d bd3b
00000030: 4030 3bb7 766a 82bb 3029 603b d7b0 0d3b
00000040: 0deb b0bb d9dc aabb 7ed8 163a 66c8 dc3a
00000050: d78b c03b 4f19 b53b cf29 66bb 9d8e c6bb
00000060: 889c b1bb b062 59bb c068 ab3b 723c 84bb
00000070: 5244 c83b 400d b4bb 43c1 863b 6ecc ac3b
00000080: ad40 b93b 704d 583b f51d 7d3b eb08 a3bb
00000090: 8203 4339 75ea 8b3b 1b7d c3bb fd8b bf39
000000a0: fea7 7c3b 4d7c 503b c458 9cbb e228 c13a
000000b0: ff7b 3f3b bc73 b7bb d9ae 95bb 0b9b b73b
000000c0: aefe aabb ebba 98bb e44c 973b 4e96 96bb
000000d0: 08fe b7ba 4a4a 973b 8cb4 853b e37e 08ba
000000e0: 5927 abbb 7fbb a13a 143a 353a d20b b6bb
000000f0: 73ef acba 415d 8c3b 14af 99bb a082 ae3b
00000100: 1c89 bb3b 3edf 143b 21c7 ab3b 9332 a93b
00000110: 0bf4 723b 27ec 943b 24ef b7bb 565d 9cbb
00000120: 31f8 fe3b cea2 8638 40f2 d83b 16de 88bb
00000130: 75cf 263b ae54 75bb 060f 123b a15a 99bb
00000140: fb27 d93b ac5e bfbb c0d2 7db9 0af3 aa3b
00000150: 3047 c4bb 8850 c43b ac67 9c3a e983 5cbb
00000160: 6f42 a8bb 4ea8 81bb 4e72 4fbb d934 933a
00000170: 6d9a b83b 0570 b03b f999 93bb 15a3 14bb
00000180: 9144 31bb f831 a63b acaa b73b f37c 9abb
00000190: 16fd a1bb 88d7 923b a0a5 e73b b564 b4bb
000001a0: fdf0 ae3b 80f8 6fbb e829 a53b 2a34 ac3b
000001b0: 7154 a5bb e75e 2abb 52b8 b23b 368e 73bb
000001c0: 05be ac3a 6872 253b 6c3b b53b 5e6e 86bb
000001d0: c3dc 82bb 63d8 d1bb c477 3cbb 5043 b7bb
000001e0: 2741 cf3b f224 c03b bc96 87bb d69c f23a
000001f0: 1224 a73b 147e cd3b 3f3d a0bb ac6e 69bb
00000200: c4f2 3fbb 6fcd b1bb f695 b3bb 7d8e 993b
00000210: 72c4 643b d7e2 743a c239 7e3b 05af 97bb
00000220: 3674 cdbb 799b 9f3b 92e9 a839 bf4b b63b
00000230: c49d a03b 215c 8e3b 1d3c c03b 39f4 593b
00000240: f21d 6e3b 8a88 9a3b 9f4e 4fbb 224c a6bb
00000250: 0264 24bb 635d b2bb ab04 743b b638 aebb
00000260: aa46 8f3b 846c ba3b aa60 d63a 4b8d c23b
00000270: fb8c 95bb 49b8 cf3b f38f 19bb 9445 b13b
00000280: b4b9 8aba ea60 b03b 4b77 86bb 4480 8a3b
00000290: ba72 9c3b c808 bbbb 2a11 c2bb f116 b33b
000002a0: 243a b83b 7198 a6bb 2677 c3bb 0bc3 ad3b
000002b0: 0d07 b53b 33a7 693b 3bec 91bb 70aa 86bb
000002c0: 48fd afbb 7bc6 66bb e8e5 923b e603 c1bb
000002d0: 697c 2d3b fc2d b93b 2a6e 83bb 4f44 183b
000002e0: a68a adbb 710e 8fbb d748 9b3b 6d76 983b
000002f0: d456 16b8 821e aabb 68cc 44bb 1cd6 b4bb
